{"keras_version": "2.0.8", "class_name": "Model", "config": {"name": "model_1", "input_layers": [["input_1", 0, 0]], "layers": [{"name": "input_1", "class_name": "InputLayer", "config": {"batch_input_shape": [null, null, null, 3], "dtype": "float32", "sparse": false, "name": "input_1"}, "inbound_nodes": []}, {"name": "conv2d_1", "class_name": "Conv2D", "config": {"kernel_constraint": null, "strides": [2, 2], "activation": "linear", "kernel_initializer": {"class_name": "VarianceScaling", "config": {"scale": 1.0, "mode": "fan_avg", "distribution": "uniform", "seed": null}}, "bias_initializer": {"class_name": "Zeros", "config": {}}, "padding": "valid", "data_format": "channels_last", "kernel_size": [3, 3], "activity_regularizer": null, "filters": 32, "bias_regularizer": null, "kernel_regularizer": null, "use_bias": false, "bias_constraint": null, "dilation_rate": [1, 1], "name": "conv2d_1", "trainable": false}, "inbound_nodes": [[["input_1", 0, 0, {}]]]}, {"name": "batch_normalization_1", "class_name": "BatchNormalization", "config": {"beta_constraint": null, "trainable": false, "name": "batch_normalization_1", "gamma_regularizer": null, "beta_regularizer": null, "center": true, "momentum": 0.99, "scale": false, "moving_variance_initializer": {"class_name": "Ones", "config": {}}, "moving_mean_initializer": {"class_name": "Zeros", "config": {}}, "axis": 3, "gamma_initializer": {"class_name": "Ones", "config": {}}, "gamma_constraint": null, "epsilon": 0.001, "beta_initializer": {"class_name": "Zeros", "config": {}}}, "inbound_nodes": [[["conv2d_1", 0, 0, {}]]]}, {"name": "activation_1", "class_name": "Activation", "config": {"name": "activation_1", "activation": "relu", "trainable": false}, "inbound_nodes": [[["batch_normalization_1", 0, 0, {}]]]}, {"name": "conv2d_2", "class_name": "Conv2D", "config": {"kernel_constraint": null, "strides": [1, 1], "activation": "linear", "kernel_initializer": {"class_name": "VarianceScaling", "config": {"scale": 1.0, "mode": "fan_avg", "distribution": "uniform", "seed": null}}, "bias_initializer": {"class_name": "Zeros", "config": {}}, "padding": "valid", "data_format": "channels_last", "kernel_size": [3, 3], "activity_regularizer": null, "filters": 32, "bias_regularizer": null, "kernel_regularizer": null, "use_bias": false, "bias_constraint": null, "dilation_rate": [1, 1], "name": "conv2d_2", "trainable": false}, "inbound_nodes": [[["activation_1", 0, 0, {}]]]}, {"name": "batch_normalization_2", "class_name": "BatchNormalization", "config": {"beta_constraint": null, "trainable": false, "name": "batch_normalization_2", "gamma_regularizer": null, "beta_regularizer": null, "center": true, "momentum": 0.99, "scale": false, "moving_variance_initializer": {"class_name": "Ones", "config": {}}, "moving_mean_initializer": {"class_name": "Zeros", "config": {}}, "axis": 3, "gamma_initializer": {"class_name": "Ones", "config": {}}, "gamma_constraint": null, "epsilon": 0.001, "beta_initializer": {"class_name": "Zeros", "config": {}}}, "inbound_nodes": [[["conv2d_2", 0, 0, {}]]]}, {"name": "activation_2", "class_name": "Activation", "config": {"name": "activation_2", "activation": "relu", "trainable": false}, "inbound_nodes": [[["batch_normalization_2", 0, 0, {}]]]}, {"name": "conv2d_3", "class_name": "Conv2D", "config": {"kernel_constraint": null, "strides": [1, 1], "activation": "linear", "kernel_initializer": {"class_name": "VarianceScaling", "config": {"scale": 1.0, "mode": "fan_avg", "distribution": "uniform", "seed": null}}, "bias_initializer": {"class_name": "Zeros", "config": {}}, "padding": "same", "data_format": "channels_last", "kernel_size": [3, 3], "activity_regularizer": null, "filters": 64, "bias_regularizer": null, "kernel_regularizer": null, "use_bias": false, "bias_constraint": null, "dilation_rate": [1, 1], "name": "conv2d_3", "trainable": false}, "inbound_nodes": [[["activation_2", 0, 0, {}]]]}, {"name": "batch_normalization_3", "class_name": "BatchNormalization", "config": {"beta_constraint": null, "trainable": false, "name": "batch_normalization_3", "gamma_regularizer": null, "beta_regularizer": null, "center": true, "momentum": 0.99, "scale": false, "moving_variance_initializer": {"class_name": "Ones", "config": {}}, "moving_mean_initializer": {"class_name": "Zeros", "config": {}}, "axis": 3, "gamma_initializer": {"class_name": "Ones", "config": {}}, "gamma_constraint": null, "epsilon": 0.001, "beta_initializer": {"class_name": "Zeros", "config": {}}}, "inbound_nodes": [[["conv2d_3", 0, 0, {}]]]}, {"name": "activation_3", "class_name": "Activation", "config": {"name": "activation_3", "activation": "relu", "trainable": false}, "inbound_nodes": [[["batch_normalization_3", 0, 0, {}]]]}, {"name": "max_pooling2d_1", "class_name": "MaxPooling2D", "config": {"pool_size": [3, 3], "name": "max_pooling2d_1", "padding": "valid", "data_format": "channels_last", "strides": [2, 2], "trainable": false}, "inbound_nodes": [[["activation_3", 0, 0, {}]]]}, {"name": "conv2d_4", "class_name": "Conv2D", "config": {"kernel_constraint": null, "strides": [1, 1], "activation": "linear", "kernel_initializer": {"class_name": "VarianceScaling", "config": {"scale": 1.0, "mode": "fan_avg", "distribution": "uniform", "seed": null}}, "bias_initializer": {"class_name": "Zeros", "config": {}}, "padding": "valid", "data_format": "channels_last", "kernel_size": [1, 1], "activity_regularizer": null, "filters": 80, "bias_regularizer": null, "kernel_regularizer": null, "use_bias": false, "bias_constraint": null, "dilation_rate": [1, 1], "name": "conv2d_4", "trainable": false}, "inbound_nodes": [[["max_pooling2d_1", 0, 0, {}]]]}, {"name": "batch_normalization_4", "class_name": "BatchNormalization", "config": {"beta_constraint": null, "trainable": false, "name": "batch_normalization_4", "gamma_regularizer": null, "beta_regularizer": null, "center": true, "momentum": 0.99, "scale": false, "moving_variance_initializer": {"class_name": "Ones", "config": {}}, "moving_mean_initializer": {"class_name": "Zeros", "config": {}}, "axis": 3, "gamma_initializer": {"class_name": "Ones", "config": {}}, "gamma_constraint": null, "epsilon": 0.001, "beta_initializer": {"class_name": "Zeros", "config": {}}}, "inbound_nodes": [[["conv2d_4", 0, 0, {}]]]}, {"name": "activation_4", "class_name": "Activation", "config": {"name": "activation_4", "activation": "relu", "trainable": false}, "inbound_nodes": [[["batch_normalization_4", 0, 0, {}]]]}, {"name": "conv2d_5", "class_name": "Conv2D", "config": {"kernel_constraint": null, "strides": [1, 1], "activation": "linear", "kernel_initializer": {"class_name": "VarianceScaling", "config": {"scale": 1.0, "mode": "fan_avg", "distribution": "uniform", "seed": null}}, "bias_initializer": {"class_name": "Zeros", "config": {}}, "padding": "valid", "data_format": "channels_last", "kernel_size": [3, 3], "activity_regularizer": null, "filters": 192, "bias_regularizer": null, "kernel_regularizer": null, "use_bias": false, "bias_constraint": null, "dilation_rate": [1, 1], "name": "conv2d_5", "trainable": false}, "inbound_nodes": [[["activation_4", 0, 0, {}]]]}, {"name": "batch_normalization_5", "class_name": "BatchNormalization", "config": {"beta_constraint": null, "trainable": false, "name": "batch_normalization_5", "gamma_regularizer": null, "beta_regularizer": null, "center": true, "momentum": 0.99, "scale": false, "moving_variance_initializer": {"class_name": "Ones", "config": {}}, "moving_mean_initializer": {"class_name": "Zeros", "config": {}}, "axis": 3, "gamma_initializer": {"class_name": "Ones", "config": {}}, "gamma_constraint": null, "epsilon": 0.001, "beta_initializer": {"class_name": "Zeros", "config": {}}}, "inbound_nodes": [[["conv2d_5", 0, 0, {}]]]}, {"name": "activation_5", "class_name": "Activation", "config": {"name": "activation_5", "activation": "relu", "trainable": false}, "inbound_nodes": [[["batch_normalization_5", 0, 0, {}]]]}, {"name": "max_pooling2d_2", "class_name": "MaxPooling2D", "config": {"pool_size": [3, 3], "name": "max_pooling2d_2", "padding": "valid", "data_format": "channels_last", "strides": [2, 2], "trainable": false}, "inbound_nodes": [[["activation_5", 0, 0, {}]]]}, {"name": "conv2d_9", "class_name": "Conv2D", "config": {"kernel_constraint": null, "strides": [1, 1], "activation": "linear", "kernel_initializer": {"class_name": "VarianceScaling", "config": {"scale": 1.0, "mode": "fan_avg", "distribution": "uniform", "seed": null}}, "bias_initializer": {"class_name": "Zeros", "config": {}}, "padding": "same", "data_format": "channels_last", "kernel_size": [1, 1], "activity_regularizer": null, "filters": 64, "bias_regularizer": null, "kernel_regularizer": null, "use_bias": false, "bias_constraint": null, "dilation_rate": [1, 1], "name": "conv2d_9", "trainable": false}, "inbound_nodes": [[["max_pooling2d_2", 0, 0, {}]]]}, {"name": "batch_normalization_9", "class_name": "BatchNormalization", "config": {"beta_constraint": null, "trainable": false, "name": "batch_normalization_9", "gamma_regularizer": null, "beta_regularizer": null, "center": true, "momentum": 0.99, "scale": false, "moving_variance_initializer": {"class_name": "Ones", "config": {}}, "moving_mean_initializer": {"class_name": "Zeros", "config": {}}, "axis": 3, "gamma_initializer": {"class_name": "Ones", "config": {}}, "gamma_constraint": null, "epsilon": 0.001, "beta_initializer": {"class_name": "Zeros", "config": {}}}, "inbound_nodes": [[["conv2d_9", 0, 0, {}]]]}, {"name": "activation_9", "class_name": "Activation", "config": {"name": "activation_9", "activation": "relu", "trainable": false}, "inbound_nodes": [[["batch_normalization_9", 0, 0, {}]]]}, {"name": "conv2d_7", "class_name": "Conv2D", "config": {"kernel_constraint": null, "strides": [1, 1], "activation": "linear", "kernel_initializer": {"class_name": "VarianceScaling", "config": {"scale": 1.0, "mode": "fan_avg", "distribution": "uniform", "seed": null}}, "bias_initializer": {"class_name": "Zeros", "config": {}}, "padding": "same", "data_format": "channels_last", "kernel_size": [1, 1], "activity_regularizer": null, "filters": 48, "bias_regularizer": null, "kernel_regularizer": null, "use_bias": false, "bias_constraint": null, "dilation_rate": [1, 1], "name": "conv2d_7", "trainable": false}, "inbound_nodes": [[["max_pooling2d_2", 0, 0, {}]]]}, {"name": "conv2d_10", "class_name": "Conv2D", "config": {"kernel_constraint": null, "strides": [1, 1], "activation": "linear", "kernel_initializer": {"class_name": "VarianceScaling", "config": {"scale": 1.0, "mode": "fan_avg", "distribution": "uniform", "seed": null}}, "bias_initializer": {"class_name": "Zeros", "config": {}}, "padding": "same", "data_format": "channels_last", "kernel_size": [3, 3], "activity_regularizer": null, "filters": 96, "bias_regularizer": null, "kernel_regularizer": null, "use_bias": false, "bias_constraint": null, "dilation_rate": [1, 1], "name": "conv2d_10", "trainable": false}, "inbound_nodes": [[["activation_9", 0, 0, {}]]]}, {"name": "batch_normalization_7", "class_name": "BatchNormalization", "config": {"beta_constraint": null, "trainable": false, "name": "batch_normalization_7", "gamma_regularizer": null, "beta_regularizer": null, "center": true, "momentum": 0.99, "scale": false, "moving_variance_initializer": {"class_name": "Ones", "config": {}}, "moving_mean_initializer": {"class_name": "Zeros", "config": {}}, "axis": 3, "gamma_initializer": {"class_name": "Ones", "config": {}}, "gamma_constraint": null, "epsilon": 0.001, "beta_initializer": {"class_name": "Zeros", "config": {}}}, "inbound_nodes": [[["conv2d_7", 0, 0, {}]]]}, {"name": "batch_normalization_10", "class_name": "BatchNormalization", "config": {"beta_constraint": null, "trainable": false, "name": "batch_normalization_10", "gamma_regularizer": null, "beta_regularizer": null, "center": true, "momentum": 0.99, "scale": false, "moving_variance_initializer": {"class_name": "Ones", "config": {}}, "moving_mean_initializer": {"class_name": "Zeros", "config": {}}, "axis": 3, "gamma_initializer": {"class_name": "Ones", "config": {}}, "gamma_constraint": null, "epsilon": 0.001, "beta_initializer": {"class_name": "Zeros", "config": {}}}, "inbound_nodes": [[["conv2d_10", 0, 0, {}]]]}, {"name": "activation_7", "class_name": "Activation", "config": {"name": "activation_7", "activation": "relu", "trainable": false}, "inbound_nodes": [[["batch_normalization_7", 0, 0, {}]]]}, {"name": "activation_10", "class_name": "Activation", "config": {"name": "activation_10", "activation": "relu", "trainable": false}, "inbound_nodes": [[["batch_normalization_10", 0, 0, {}]]]}, {"name": "average_pooling2d_1", "class_name": "AveragePooling2D", "config": {"pool_size": [3, 3], "name": "average_pooling2d_1", "padding": "same", "data_format": "channels_last", "strides": [1, 1], "trainable": false}, "inbound_nodes": [[["max_pooling2d_2", 0, 0, {}]]]}, {"name": "conv2d_6", "class_name": "Conv2D", "config": {"kernel_constraint": null, "strides": [1, 1], "activation": "linear", "kernel_initializer": {"class_name": "VarianceScaling", "config": {"scale": 1.0, "mode": "fan_avg", "distribution": "uniform", "seed": null}}, "bias_initializer": {"class_name": "Zeros", "config": {}}, "padding": "same", "data_format": "channels_last", "kernel_size": [1, 1], "activity_regularizer": null, "filters": 64, "bias_regularizer": null, "kernel_regularizer": null, "use_bias": false, "bias_constraint": null, "dilation_rate": [1, 1], "name": "conv2d_6", "trainable": false}, "inbound_nodes": [[["max_pooling2d_2", 0, 0, {}]]]}, {"name": "conv2d_8", "class_name": "Conv2D", "config": {"kernel_constraint": null, "strides": [1, 1], "activation": "linear", "kernel_initializer": {"class_name": "VarianceScaling", "config": {"scale": 1.0, "mode": "fan_avg", "distribution": "uniform", "seed": null}}, "bias_initializer": {"class_name": "Zeros", "config": {}}, "padding": "same", "data_format": "channels_last", "kernel_size": [5, 5], "activity_regularizer": null, "filters": 64, "bias_regularizer": null, "kernel_regularizer": null, "use_bias": false, "bias_constraint": null, "dilation_rate": [1, 1], "name": "conv2d_8", "trainable": false}, "inbound_nodes": [[["activation_7", 0, 0, {}]]]}, {"name": "conv2d_11", "class_name": "Conv2D", "config": {"kernel_constraint": null, "strides": [1, 1], "activation": "linear", "kernel_initializer": {"class_name": "VarianceScaling", "config": {"scale": 1.0, "mode": "fan_avg", "distribution": "uniform", "seed": null}}, "bias_initializer": {"class_name": "Zeros", "config": {}}, "padding": "same", "data_format": "channels_last", "kernel_size": [3, 3], "activity_regularizer": null, "filters": 96, "bias_regularizer": null, "kernel_regularizer": null, "use_bias": false, "bias_constraint": null, "dilation_rate": [1, 1], "name": "conv2d_11", "trainable": false}, "inbound_nodes": [[["activation_10", 0, 0, {}]]]}, {"name": "conv2d_12", "class_name": "Conv2D", "config": {"kernel_constraint": null, "strides": [1, 1], "activation": "linear", "kernel_initializer": {"class_name": "VarianceScaling", "config": {"scale": 1.0, "mode": "fan_avg", "distribution": "uniform", "seed": null}}, "bias_initializer": {"class_name": "Zeros", "config": {}}, "padding": "same", "data_format": "channels_last", "kernel_size": [1, 1], "activity_regularizer": null, "filters": 32, "bias_regularizer": null, "kernel_regularizer": null, "use_bias": false, "bias_constraint": null, "dilation_rate": [1, 1], "name": "conv2d_12", "trainable": false}, "inbound_nodes": [[["average_pooling2d_1", 0, 0, {}]]]}, {"name": "batch_normalization_6", "class_name": "BatchNormalization", "config": {"beta_constraint": null, "trainable": false, "name": "batch_normalization_6", "gamma_regularizer": null, "beta_regularizer": null, "center": true, "momentum": 0.99, "scale": false, "moving_variance_initializer": {"class_name": "Ones", "config": {}}, "moving_mean_initializer": {"class_name": "Zeros", "config": {}}, "axis": 3, "gamma_initializer": {"class_name": "Ones", "config": {}}, "gamma_constraint": null, "epsilon": 0.001, "beta_initializer": {"class_name": "Zeros", "config": {}}}, "inbound_nodes": [[["conv2d_6", 0, 0, {}]]]}, {"name": "batch_normalization_8", "class_name": "BatchNormalization", "config": {"beta_constraint": null, "trainable": false, "name": "batch_normalization_8", "gamma_regularizer": null, "beta_regularizer": null, "center": true, "momentum": 0.99, "scale": false, "moving_variance_initializer": {"class_name": "Ones", "config": {}}, "moving_mean_initializer": {"class_name": "Zeros", "config": {}}, "axis": 3, "gamma_initializer": {"class_name": "Ones", "config": {}}, "gamma_constraint": null, "epsilon": 0.001, "beta_initializer": {"class_name": "Zeros", "config": {}}}, "inbound_nodes": [[["conv2d_8", 0, 0, {}]]]}, {"name": "batch_normalization_11", "class_name": "BatchNormalization", "config": {"beta_constraint": null, "trainable": false, "name": "batch_normalization_11", "gamma_regularizer": null, "beta_regularizer": null, "center": true, "momentum": 0.99, "scale": false, "moving_variance_initializer": {"class_name": "Ones", "config": {}}, "moving_mean_initializer": {"class_name": "Zeros", "config": {}}, "axis": 3, "gamma_initializer": {"class_name": "Ones", "config": {}}, "gamma_constraint": null, "epsilon": 0.001, "beta_initializer": {"class_name": "Zeros", "config": {}}}, "inbound_nodes": [[["conv2d_11", 0, 0, {}]]]}, {"name": "batch_normalization_12", "class_name": "BatchNormalization", "config": {"beta_constraint": null, "trainable": false, "name": "batch_normalization_12", "gamma_regularizer": null, "beta_regularizer": null, "center": true, "momentum": 0.99, "scale": false, "moving_variance_initializer": {"class_name": "Ones", "config": {}}, "moving_mean_initializer": {"class_name": "Zeros", "config": {}}, "axis": 3, "gamma_initializer": {"class_name": "Ones", "config": {}}, "gamma_constraint": null, "epsilon": 0.001, "beta_initializer": {"class_name": "Zeros", "config": {}}}, "inbound_nodes": [[["conv2d_12", 0, 0, {}]]]}, {"name": "activation_6", "class_name": "Activation", "config": {"name": "activation_6", "activation": "relu", "trainable": false}, "inbound_nodes": [[["batch_normalization_6", 0, 0, {}]]]}, {"name": "activation_8", "class_name": "Activation", "config": {"name": "activation_8", "activation": "relu", "trainable": false}, "inbound_nodes": [[["batch_normalization_8", 0, 0, {}]]]}, {"name": "activation_11", "class_name": "Activation", "config": {"name": "activation_11", "activation": "relu", "trainable": false}, "inbound_nodes": [[["batch_normalization_11", 0, 0, {}]]]}, {"name": "activation_12", "class_name": "Activation", "config": {"name": "activation_12", "activation": "relu", "trainable": false}, "inbound_nodes": [[["batch_normalization_12", 0, 0, {}]]]}, {"name": "mixed0", "class_name": "Concatenate", "config": {"name": "mixed0", "trainable": false, "axis": 3}, "inbound_nodes": [[["activation_6", 0, 0, {}], ["activation_8", 0, 0, {}], ["activation_11", 0, 0, {}], ["activation_12", 0, 0, {}]]]}, {"name": "conv2d_16", "class_name": "Conv2D", "config": {"kernel_constraint": null, "strides": [1, 1], "activation": "linear", "kernel_initializer": {"class_name": "VarianceScaling", "config": {"scale": 1.0, "mode": "fan_avg", "distribution": "uniform", "seed": null}}, "bias_initializer": {"class_name": "Zeros", "config": {}}, "padding": "same", "data_format": "channels_last", "kernel_size": [1, 1], "activity_regularizer": null, "filters": 64, "bias_regularizer": null, "kernel_regularizer": null, "use_bias": false, "bias_constraint": null, "dilation_rate": [1, 1], "name": "conv2d_16", "trainable": false}, "inbound_nodes": [[["mixed0", 0, 0, {}]]]}, {"name": "batch_normalization_16", "class_name": "BatchNormalization", "config": {"beta_constraint": null, "trainable": false, "name": "batch_normalization_16", "gamma_regularizer": null, "beta_regularizer": null, "center": true, "momentum": 0.99, "scale": false, "moving_variance_initializer": {"class_name": "Ones", "config": {}}, "moving_mean_initializer": {"class_name": "Zeros", "config": {}}, "axis": 3, "gamma_initializer": {"class_name": "Ones", "config": {}}, "gamma_constraint": null, "epsilon": 0.001, "beta_initializer": {"class_name": "Zeros", "config": {}}}, "inbound_nodes": [[["conv2d_16", 0, 0, {}]]]}, {"name": "activation_16", "class_name": "Activation", "config": {"name": "activation_16", "activation": "relu", "trainable": false}, "inbound_nodes": [[["batch_normalization_16", 0, 0, {}]]]}, {"name": "conv2d_14", "class_name": "Conv2D", "config": {"kernel_constraint": null, "strides": [1, 1], "activation": "linear", "kernel_initializer": {"class_name": "VarianceScaling", "config": {"scale": 1.0, "mode": "fan_avg", "distribution": "uniform", "seed": null}}, "bias_initializer": {"class_name": "Zeros", "config": {}}, "padding": "same", "data_format": "channels_last", "kernel_size": [1, 1], "activity_regularizer": null, "filters": 48, "bias_regularizer": null, "kernel_regularizer": null, "use_bias": false, "bias_constraint": null, "dilation_rate": [1, 1], "name": "conv2d_14", "trainable": false}, "inbound_nodes": [[["mixed0", 0, 0, {}]]]}, {"name": "conv2d_17", "class_name": "Conv2D", "config": {"kernel_constraint": null, "strides": [1, 1], "activation": "linear", "kernel_initializer": {"class_name": "VarianceScaling", "config": {"scale": 1.0, "mode": "fan_avg", "distribution": "uniform", "seed": null}}, "bias_initializer": {"class_name": "Zeros", "config": {}}, "padding": "same", "data_format": "channels_last", "kernel_size": [3, 3], "activity_regularizer": null, "filters": 96, "bias_regularizer": null, "kernel_regularizer": null, "use_bias": false, "bias_constraint": null, "dilation_rate": [1, 1], "name": "conv2d_17", "trainable": false}, "inbound_nodes": [[["activation_16", 0, 0, {}]]]}, {"name": "batch_normalization_14", "class_name": "BatchNormalization", "config": {"beta_constraint": null, "trainable": false, "name": "batch_normalization_14", "gamma_regularizer": null, "beta_regularizer": null, "center": true, "momentum": 0.99, "scale": false, "moving_variance_initializer": {"class_name": "Ones", "config": {}}, "moving_mean_initializer": {"class_name": "Zeros", "config": {}}, "axis": 3, "gamma_initializer": {"class_name": "Ones", "config": {}}, "gamma_constraint": null, "epsilon": 0.001, "beta_initializer": {"class_name": "Zeros", "config": {}}}, "inbound_nodes": [[["conv2d_14", 0, 0, {}]]]}, {"name": "batch_normalization_17", "class_name": "BatchNormalization", "config": {"beta_constraint": null, "trainable": false, "name": "batch_normalization_17", "gamma_regularizer": null, "beta_regularizer": null, "center": true, "momentum": 0.99, "scale": false, "moving_variance_initializer": {"class_name": "Ones", "config": {}}, "moving_mean_initializer": {"class_name": "Zeros", "config": {}}, "axis": 3, "gamma_initializer": {"class_name": "Ones", "config": {}}, "gamma_constraint": null, "epsilon": 0.001, "beta_initializer": {"class_name": "Zeros", "config": {}}}, "inbound_nodes": [[["conv2d_17", 0, 0, {}]]]}, {"name": "activation_14", "class_name": "Activation", "config": {"name": "activation_14", "activation": "relu", "trainable": false}, "inbound_nodes": [[["batch_normalization_14", 0, 0, {}]]]}, {"name": "activation_17", "class_name": "Activation", "config": {"name": "activation_17", "activation": "relu", "trainable": false}, "inbound_nodes": [[["batch_normalization_17", 0, 0, {}]]]}, {"name": "average_pooling2d_2", "class_name": "AveragePooling2D", "config": {"pool_size": [3, 3], "name": "average_pooling2d_2", "padding": "same", "data_format": "channels_last", "strides": [1, 1], "trainable": false}, "inbound_nodes": [[["mixed0", 0, 0, {}]]]}, {"name": "conv2d_13", "class_name": "Conv2D", "config": {"kernel_constraint": null, "strides": [1, 1], "activation": "linear", "kernel_initializer": {"class_name": "VarianceScaling", "config": {"scale": 1.0, "mode": "fan_avg", "distribution": "uniform", "seed": null}}, "bias_initializer": {"class_name": "Zeros", "config": {}}, "padding": "same", "data_format": "channels_last", "kernel_size": [1, 1], "activity_regularizer": null, "filters": 64, "bias_regularizer": null, "kernel_regularizer": null, "use_bias": false, "bias_constraint": null, "dilation_rate": [1, 1], "name": "conv2d_13", "trainable": false}, "inbound_nodes": [[["mixed0", 0, 0, {}]]]}, {"name": "conv2d_15", "class_name": "Conv2D", "config": {"kernel_constraint": null, "strides": [1, 1], "activation": "linear", "kernel_initializer": {"class_name": "VarianceScaling", "config": {"scale": 1.0, "mode": "fan_avg", "distribution": "uniform", "seed": null}}, "bias_initializer": {"class_name": "Zeros", "config": {}}, "padding": "same", "data_format": "channels_last", "kernel_size": [5, 5], "activity_regularizer": null, "filters": 64, "bias_regularizer": null, "kernel_regularizer": null, "use_bias": false, "bias_constraint": null, "dilation_rate": [1, 1], "name": "conv2d_15", "trainable": false}, "inbound_nodes": [[["activation_14", 0, 0, {}]]]}, {"name": "conv2d_18", "class_name": "Conv2D", "config": {"kernel_constraint": null, "strides": [1, 1], "activation": "linear", "kernel_initializer": {"class_name": "VarianceScaling", "config": {"scale": 1.0, "mode": "fan_avg", "distribution": "uniform", "seed": null}}, "bias_initializer": {"class_name": "Zeros", "config": {}}, "padding": "same", "data_format": "channels_last", "kernel_size": [3, 3], "activity_regularizer": null, "filters": 96, "bias_regularizer": null, "kernel_regularizer": null, "use_bias": false, "bias_constraint": null, "dilation_rate": [1, 1], "name": "conv2d_18", "trainable": false}, "inbound_nodes": [[["activation_17", 0, 0, {}]]]}, {"name": "conv2d_19", "class_name": "Conv2D", "config": {"kernel_constraint": null, "strides": [1, 1], "activation": "linear", "kernel_initializer": {"class_name": "VarianceScaling", "config": {"scale": 1.0, "mode": "fan_avg", "distribution": "uniform", "seed": null}}, "bias_initializer": {"class_name": "Zeros", "config": {}}, "padding": "same", "data_format": "channels_last", "kernel_size": [1, 1], "activity_regularizer": null, "filters": 64, "bias_regularizer": null, "kernel_regularizer": null, "use_bias": false, "bias_constraint": null, "dilation_rate": [1, 1], "name": "conv2d_19", "trainable": false}, "inbound_nodes": [[["average_pooling2d_2", 0, 0, {}]]]}, {"name": "batch_normalization_13", "class_name": "BatchNormalization", "config": {"beta_constraint": null, "trainable": false, "name": "batch_normalization_13", "gamma_regularizer": null, "beta_regularizer": null, "center": true, "momentum": 0.99, "scale": false, "moving_variance_initializer": {"class_name": "Ones", "config": {}}, "moving_mean_initializer": {"class_name": "Zeros", "config": {}}, "axis": 3, "gamma_initializer": {"class_name": "Ones", "config": {}}, "gamma_constraint": null, "epsilon": 0.001, "beta_initializer": {"class_name": "Zeros", "config": {}}}, "inbound_nodes": [[["conv2d_13", 0, 0, {}]]]}, {"name": "batch_normalization_15", "class_name": "BatchNormalization", "config": {"beta_constraint": null, "trainable": false, "name": "batch_normalization_15", "gamma_regularizer": null, "beta_regularizer": null, "center": true, "momentum": 0.99, "scale": false, "moving_variance_initializer": {"class_name": "Ones", "config": {}}, "moving_mean_initializer": {"class_name": "Zeros", "config": {}}, "axis": 3, "gamma_initializer": {"class_name": "Ones", "config": {}}, "gamma_constraint": null, "epsilon": 0.001, "beta_initializer": {"class_name": "Zeros", "config": {}}}, "inbound_nodes": [[["conv2d_15", 0, 0, {}]]]}, {"name": "batch_normalization_18", "class_name": "BatchNormalization", "config": {"beta_constraint": null, "trainable": false, "name": "batch_normalization_18", "gamma_regularizer": null, "beta_regularizer": null, "center": true, "momentum": 0.99, "scale": false, "moving_variance_initializer": {"class_name": "Ones", "config": {}}, "moving_mean_initializer": {"class_name": "Zeros", "config": {}}, "axis": 3, "gamma_initializer": {"class_name": "Ones", "config": {}}, "gamma_constraint": null, "epsilon": 0.001, "beta_initializer": {"class_name": "Zeros", "config": {}}}, "inbound_nodes": [[["conv2d_18", 0, 0, {}]]]}, {"name": "batch_normalization_19", "class_name": "BatchNormalization", "config": {"beta_constraint": null, "trainable": false, "name": "batch_normalization_19", "gamma_regularizer": null, "beta_regularizer": null, "center": true, "momentum": 0.99, "scale": false, "moving_variance_initializer": {"class_name": "Ones", "config": {}}, "moving_mean_initializer": {"class_name": "Zeros", "config": {}}, "axis": 3, "gamma_initializer": {"class_name": "Ones", "config": {}}, "gamma_constraint": null, "epsilon": 0.001, "beta_initializer": {"class_name": "Zeros", "config": {}}}, "inbound_nodes": [[["conv2d_19", 0, 0, {}]]]}, {"name": "activation_13", "class_name": "Activation", "config": {"name": "activation_13", "activation": "relu", "trainable": false}, "inbound_nodes": [[["batch_normalization_13", 0, 0, {}]]]}, {"name": "activation_15", "class_name": "Activation", "config": {"name": "activation_15", "activation": "relu", "trainable": false}, "inbound_nodes": [[["batch_normalization_15", 0, 0, {}]]]}, {"name": "activation_18", "class_name": "Activation", "config": {"name": "activation_18", "activation": "relu", "trainable": false}, "inbound_nodes": [[["batch_normalization_18", 0, 0, {}]]]}, {"name": "activation_19", "class_name": "Activation", "config": {"name": "activation_19", "activation": "relu", "trainable": false}, "inbound_nodes": [[["batch_normalization_19", 0, 0, {}]]]}, {"name": "mixed1", "class_name": "Concatenate", "config": {"name": "mixed1", "trainable": false, "axis": 3}, "inbound_nodes": [[["activation_13", 0, 0, {}], ["activation_15", 0, 0, {}], ["activation_18", 0, 0, {}], ["activation_19", 0, 0, {}]]]}, {"name": "conv2d_23", "class_name": "Conv2D", "config": {"kernel_constraint": null, "strides": [1, 1], "activation": "linear", "kernel_initializer": {"class_name": "VarianceScaling", "config": {"scale": 1.0, "mode": "fan_avg", "distribution": "uniform", "seed": null}}, "bias_initializer": {"class_name": "Zeros", "config": {}}, "padding": "same", "data_format": "channels_last", "kernel_size": [1, 1], "activity_regularizer": null, "filters": 64, "bias_regularizer": null, "kernel_regularizer": null, "use_bias": false, "bias_constraint": null, "dilation_rate": [1, 1], "name": "conv2d_23", "trainable": false}, "inbound_nodes": [[["mixed1", 0, 0, {}]]]}, {"name": "batch_normalization_23", "class_name": "BatchNormalization", "config": {"beta_constraint": null, "trainable": false, "name": "batch_normalization_23", "gamma_regularizer": null, "beta_regularizer": null, "center": true, "momentum": 0.99, "scale": false, "moving_variance_initializer": {"class_name": "Ones", "config": {}}, "moving_mean_initializer": {"class_name": "Zeros", "config": {}}, "axis": 3, "gamma_initializer": {"class_name": "Ones", "config": {}}, "gamma_constraint": null, "epsilon": 0.001, "beta_initializer": {"class_name": "Zeros", "config": {}}}, "inbound_nodes": [[["conv2d_23", 0, 0, {}]]]}, {"name": "activation_23", "class_name": "Activation", "config": {"name": "activation_23", "activation": "relu", "trainable": false}, "inbound_nodes": [[["batch_normalization_23", 0, 0, {}]]]}, {"name": "conv2d_21", "class_name": "Conv2D", "config": {"kernel_constraint": null, "strides": [1, 1], "activation": "linear", "kernel_initializer": {"class_name": "VarianceScaling", "config": {"scale": 1.0, "mode": "fan_avg", "distribution": "uniform", "seed": null}}, "bias_initializer": {"class_name": "Zeros", "config": {}}, "padding": "same", "data_format": "channels_last", "kernel_size": [1, 1], "activity_regularizer": null, "filters": 48, "bias_regularizer": null, "kernel_regularizer": null, "use_bias": false, "bias_constraint": null, "dilation_rate": [1, 1], "name": "conv2d_21", "trainable": false}, "inbound_nodes": [[["mixed1", 0, 0, {}]]]}, {"name": "conv2d_24", "class_name": "Conv2D", "config": {"kernel_constraint": null, "strides": [1, 1], "activation": "linear", "kernel_initializer": {"class_name": "VarianceScaling", "config": {"scale": 1.0, "mode": "fan_avg", "distribution": "uniform", "seed": null}}, "bias_initializer": {"class_name": "Zeros", "config": {}}, "padding": "same", "data_format": "channels_last", "kernel_size": [3, 3], "activity_regularizer": null, "filters": 96, "bias_regularizer": null, "kernel_regularizer": null, "use_bias": false, "bias_constraint": null, "dilation_rate": [1, 1], "name": "conv2d_24", "trainable": false}, "inbound_nodes": [[["activation_23", 0, 0, {}]]]}, {"name": "batch_normalization_21", "class_name": "BatchNormalization", "config": {"beta_constraint": null, "trainable": false, "name": "batch_normalization_21", "gamma_regularizer": null, "beta_regularizer": null, "center": true, "momentum": 0.99, "scale": false, "moving_variance_initializer": {"class_name": "Ones", "config": {}}, "moving_mean_initializer": {"class_name": "Zeros", "config": {}}, "axis": 3, "gamma_initializer": {"class_name": "Ones", "config": {}}, "gamma_constraint": null, "epsilon": 0.001, "beta_initializer": {"class_name": "Zeros", "config": {}}}, "inbound_nodes": [[["conv2d_21", 0, 0, {}]]]}, {"name": "batch_normalization_24", "class_name": "BatchNormalization", "config": {"beta_constraint": null, "trainable": false, "name": "batch_normalization_24", "gamma_regularizer": null, "beta_regularizer": null, "center": true, "momentum": 0.99, "scale": false, "moving_variance_initializer": {"class_name": "Ones", "config": {}}, "moving_mean_initializer": {"class_name": "Zeros", "config": {}}, "axis": 3, "gamma_initializer": {"class_name": "Ones", "config": {}}, "gamma_constraint": null, "epsilon": 0.001, "beta_initializer": {"class_name": "Zeros", "config": {}}}, "inbound_nodes": [[["conv2d_24", 0, 0, {}]]]}, {"name": "activation_21", "class_name": "Activation", "config": {"name": "activation_21", "activation": "relu", "trainable": false}, "inbound_nodes": [[["batch_normalization_21", 0, 0, {}]]]}, {"name": "activation_24", "class_name": "Activation", "config": {"name": "activation_24", "activation": "relu", "trainable": false}, "inbound_nodes": [[["batch_normalization_24", 0, 0, {}]]]}, {"name": "average_pooling2d_3", "class_name": "AveragePooling2D", "config": {"pool_size": [3, 3], "name": "average_pooling2d_3", "padding": "same", "data_format": "channels_last", "strides": [1, 1], "trainable": false}, "inbound_nodes": [[["mixed1", 0, 0, {}]]]}, {"name": "conv2d_20", "class_name": "Conv2D", "config": {"kernel_constraint": null, "strides": [1, 1], "activation": "linear", "kernel_initializer": {"class_name": "VarianceScaling", "config": {"scale": 1.0, "mode": "fan_avg", "distribution": "uniform", "seed": null}}, "bias_initializer": {"class_name": "Zeros", "config": {}}, "padding": "same", "data_format": "channels_last", "kernel_size": [1, 1], "activity_regularizer": null, "filters": 64, "bias_regularizer": null, "kernel_regularizer": null, "use_bias": false, "bias_constraint": null, "dilation_rate": [1, 1], "name": "conv2d_20", "trainable": false}, "inbound_nodes": [[["mixed1", 0, 0, {}]]]}, {"name": "conv2d_22", "class_name": "Conv2D", "config": {"kernel_constraint": null, "strides": [1, 1], "activation": "linear", "kernel_initializer": {"class_name": "VarianceScaling", "config": {"scale": 1.0, "mode": "fan_avg", "distribution": "uniform", "seed": null}}, "bias_initializer": {"class_name": "Zeros", "config": {}}, "padding": "same", "data_format": "channels_last", "kernel_size": [5, 5], "activity_regularizer": null, "filters": 64, "bias_regularizer": null, "kernel_regularizer": null, "use_bias": false, "bias_constraint": null, "dilation_rate": [1, 1], "name": "conv2d_22", "trainable": false}, "inbound_nodes": [[["activation_21", 0, 0, {}]]]}, {"name": "conv2d_25", "class_name": "Conv2D", "config": {"kernel_constraint": null, "strides": [1, 1], "activation": "linear", "kernel_initializer": {"class_name": "VarianceScaling", "config": {"scale": 1.0, "mode": "fan_avg", "distribution": "uniform", "seed": null}}, "bias_initializer": {"class_name": "Zeros", "config": {}}, "padding": "same", "data_format": "channels_last", "kernel_size": [3, 3], "activity_regularizer": null, "filters": 96, "bias_regularizer": null, "kernel_regularizer": null, "use_bias": false, "bias_constraint": null, "dilation_rate": [1, 1], "name": "conv2d_25", "trainable": false}, "inbound_nodes": [[["activation_24", 0, 0, {}]]]}, {"name": "conv2d_26", "class_name": "Conv2D", "config": {"kernel_constraint": null, "strides": [1, 1], "activation": "linear", "kernel_initializer": {"class_name": "VarianceScaling", "config": {"scale": 1.0, "mode": "fan_avg", "distribution": "uniform", "seed": null}}, "bias_initializer": {"class_name": "Zeros", "config": {}}, "padding": "same", "data_format": "channels_last", "kernel_size": [1, 1], "activity_regularizer": null, "filters": 64, "bias_regularizer": null, "kernel_regularizer": null, "use_bias": false, "bias_constraint": null, "dilation_rate": [1, 1], "name": "conv2d_26", "trainable": false}, "inbound_nodes": [[["average_pooling2d_3", 0, 0, {}]]]}, {"name": "batch_normalization_20", "class_name": "BatchNormalization", "config": {"beta_constraint": null, "trainable": false, "name": "batch_normalization_20", "gamma_regularizer": null, "beta_regularizer": null, "center": true, "momentum": 0.99, "scale": false, "moving_variance_initializer": {"class_name": "Ones", "config": {}}, "moving_mean_initializer": {"class_name": "Zeros", "config": {}}, "axis": 3, "gamma_initializer": {"class_name": "Ones", "config": {}}, "gamma_constraint": null, "epsilon": 0.001, "beta_initializer": {"class_name": "Zeros", "config": {}}}, "inbound_nodes": [[["conv2d_20", 0, 0, {}]]]}, {"name": "batch_normalization_22", "class_name": "BatchNormalization", "config": {"beta_constraint": null, "trainable": false, "name": "batch_normalization_22", "gamma_regularizer": null, "beta_regularizer": null, "center": true, "momentum": 0.99, "scale": false, "moving_variance_initializer": {"class_name": "Ones", "config": {}}, "moving_mean_initializer": {"class_name": "Zeros", "config": {}}, "axis": 3, "gamma_initializer": {"class_name": "Ones", "config": {}}, "gamma_constraint": null, "epsilon": 0.001, "beta_initializer": {"class_name": "Zeros", "config": {}}}, "inbound_nodes": [[["conv2d_22", 0, 0, {}]]]}, {"name": "batch_normalization_25", "class_name": "BatchNormalization", "config": {"beta_constraint": null, "trainable": false, "name": "batch_normalization_25", "gamma_regularizer": null, "beta_regularizer": null, "center": true, "momentum": 0.99, "scale": false, "moving_variance_initializer": {"class_name": "Ones", "config": {}}, "moving_mean_initializer": {"class_name": "Zeros", "config": {}}, "axis": 3, "gamma_initializer": {"class_name": "Ones", "config": {}}, "gamma_constraint": null, "epsilon": 0.001, "beta_initializer": {"class_name": "Zeros", "config": {}}}, "inbound_nodes": [[["conv2d_25", 0, 0, {}]]]}, {"name": "batch_normalization_26", "class_name": "BatchNormalization", "config": {"beta_constraint": null, "trainable": false, "name": "batch_normalization_26", "gamma_regularizer": null, "beta_regularizer": null, "center": true, "momentum": 0.99, "scale": false, "moving_variance_initializer": {"class_name": "Ones", "config": {}}, "moving_mean_initializer": {"class_name": "Zeros", "config": {}}, "axis": 3, "gamma_initializer": {"class_name": "Ones", "config": {}}, "gamma_constraint": null, "epsilon": 0.001, "beta_initializer": {"class_name": "Zeros", "config": {}}}, "inbound_nodes": [[["conv2d_26", 0, 0, {}]]]}, {"name": "activation_20", "class_name": "Activation", "config": {"name": "activation_20", "activation": "relu", "trainable": false}, "inbound_nodes": [[["batch_normalization_20", 0, 0, {}]]]}, {"name": "activation_22", "class_name": "Activation", "config": {"name": "activation_22", "activation": "relu", "trainable": false}, "inbound_nodes": [[["batch_normalization_22", 0, 0, {}]]]}, {"name": "activation_25", "class_name": "Activation", "config": {"name": "activation_25", "activation": "relu", "trainable": false}, "inbound_nodes": [[["batch_normalization_25", 0, 0, {}]]]}, {"name": "activation_26", "class_name": "Activation", "config": {"name": "activation_26", "activation": "relu", "trainable": false}, "inbound_nodes": [[["batch_normalization_26", 0, 0, {}]]]}, {"name": "mixed2", "class_name": "Concatenate", "config": {"name": "mixed2", "trainable": false, "axis": 3}, "inbound_nodes": [[["activation_20", 0, 0, {}], ["activation_22", 0, 0, {}], ["activation_25", 0, 0, {}], ["activation_26", 0, 0, {}]]]}, {"name": "conv2d_28", "class_name": "Conv2D", "config": {"kernel_constraint": null, "strides": [1, 1], "activation": "linear", "kernel_initializer": {"class_name": "VarianceScaling", "config": {"scale": 1.0, "mode": "fan_avg", "distribution": "uniform", "seed": null}}, "bias_initializer": {"class_name": "Zeros", "config": {}}, "padding": "same", "data_format": "channels_last", "kernel_size": [1, 1], "activity_regularizer": null, "filters": 64, "bias_regularizer": null, "kernel_regularizer": null, "use_bias": false, "bias_constraint": null, "dilation_rate": [1, 1], "name": "conv2d_28", "trainable": false}, "inbound_nodes": [[["mixed2", 0, 0, {}]]]}, {"name": "batch_normalization_28", "class_name": "BatchNormalization", "config": {"beta_constraint": null, "trainable": false, "name": "batch_normalization_28", "gamma_regularizer": null, "beta_regularizer": null, "center": true, "momentum": 0.99, "scale": false, "moving_variance_initializer": {"class_name": "Ones", "config": {}}, "moving_mean_initializer": {"class_name": "Zeros", "config": {}}, "axis": 3, "gamma_initializer": {"class_name": "Ones", "config": {}}, "gamma_constraint": null, "epsilon": 0.001, "beta_initializer": {"class_name": "Zeros", "config": {}}}, "inbound_nodes": [[["conv2d_28", 0, 0, {}]]]}, {"name": "activation_28", "class_name": "Activation", "config": {"name": "activation_28", "activation": "relu", "trainable": false}, "inbound_nodes": [[["batch_normalization_28", 0, 0, {}]]]}, {"name": "conv2d_29", "class_name": "Conv2D", "config": {"kernel_constraint": null, "strides": [1, 1], "activation": "linear", "kernel_initializer": {"class_name": "VarianceScaling", "config": {"scale": 1.0, "mode": "fan_avg", "distribution": "uniform", "seed": null}}, "bias_initializer": {"class_name": "Zeros", "config": {}}, "padding": "same", "data_format": "channels_last", "kernel_size": [3, 3], "activity_regularizer": null, "filters": 96, "bias_regularizer": null, "kernel_regularizer": null, "use_bias": false, "bias_constraint": null, "dilation_rate": [1, 1], "name": "conv2d_29", "trainable": false}, "inbound_nodes": [[["activation_28", 0, 0, {}]]]}, {"name": "batch_normalization_29", "class_name": "BatchNormalization", "config": {"beta_constraint": null, "trainable": false, "name": "batch_normalization_29", "gamma_regularizer": null, "beta_regularizer": null, "center": true, "momentum": 0.99, "scale": false, "moving_variance_initializer": {"class_name": "Ones", "config": {}}, "moving_mean_initializer": {"class_name": "Zeros", "config": {}}, "axis": 3, "gamma_initializer": {"class_name": "Ones", "config": {}}, "gamma_constraint": null, "epsilon": 0.001, "beta_initializer": {"class_name": "Zeros", "config": {}}}, "inbound_nodes": [[["conv2d_29", 0, 0, {}]]]}, {"name": "activation_29", "class_name": "Activation", "config": {"name": "activation_29", "activation": "relu", "trainable": false}, "inbound_nodes": [[["batch_normalization_29", 0, 0, {}]]]}, {"name": "conv2d_27", "class_name": "Conv2D", "config": {"kernel_constraint": null, "strides": [2, 2], "activation": "linear", "kernel_initializer": {"class_name": "VarianceScaling", "config": {"scale": 1.0, "mode": "fan_avg", "distribution": "uniform", "seed": null}}, "bias_initializer": {"class_name": "Zeros", "config": {}}, "padding": "valid", "data_format": "channels_last", "kernel_size": [3, 3], "activity_regularizer": null, "filters": 384, "bias_regularizer": null, "kernel_regularizer": null, "use_bias": false, "bias_constraint": null, "dilation_rate": [1, 1], "name": "conv2d_27", "trainable": false}, "inbound_nodes": [[["mixed2", 0, 0, {}]]]}, {"name": "conv2d_30", "class_name": "Conv2D", "config": {"kernel_constraint": null, "strides": [2, 2], "activation": "linear", "kernel_initializer": {"class_name": "VarianceScaling", "config": {"scale": 1.0, "mode": "fan_avg", "distribution": "uniform", "seed": null}}, "bias_initializer": {"class_name": "Zeros", "config": {}}, "padding": "valid", "data_format": "channels_last", "kernel_size": [3, 3], "activity_regularizer": null, "filters": 96, "bias_regularizer": null, "kernel_regularizer": null, "use_bias": false, "bias_constraint": null, "dilation_rate": [1, 1], "name": "conv2d_30", "trainable": false}, "inbound_nodes": [[["activation_29", 0, 0, {}]]]}, {"name": "batch_normalization_27", "class_name": "BatchNormalization", "config": {"beta_constraint": null, "trainable": false, "name": "batch_normalization_27", "gamma_regularizer": null, "beta_regularizer": null, "center": true, "momentum": 0.99, "scale": false, "moving_variance_initializer": {"class_name": "Ones", "config": {}}, "moving_mean_initializer": {"class_name": "Zeros", "config": {}}, "axis": 3, "gamma_initializer": {"class_name": "Ones", "config": {}}, "gamma_constraint": null, "epsilon": 0.001, "beta_initializer": {"class_name": "Zeros", "config": {}}}, "inbound_nodes": [[["conv2d_27", 0, 0, {}]]]}, {"name": "batch_normalization_30", "class_name": "BatchNormalization", "config": {"beta_constraint": null, "trainable": false, "name": "batch_normalization_30", "gamma_regularizer": null, "beta_regularizer": null, "center": true, "momentum": 0.99, "scale": false, "moving_variance_initializer": {"class_name": "Ones", "config": {}}, "moving_mean_initializer": {"class_name": "Zeros", "config": {}}, "axis": 3, "gamma_initializer": {"class_name": "Ones", "config": {}}, "gamma_constraint": null, "epsilon": 0.001, "beta_initializer": {"class_name": "Zeros", "config": {}}}, "inbound_nodes": [[["conv2d_30", 0, 0, {}]]]}, {"name": "activation_27", "class_name": "Activation", "config": {"name": "activation_27", "activation": "relu", "trainable": false}, "inbound_nodes": [[["batch_normalization_27", 0, 0, {}]]]}, {"name": "activation_30", "class_name": "Activation", "config": {"name": "activation_30", "activation": "relu", "trainable": false}, "inbound_nodes": [[["batch_normalization_30", 0, 0, {}]]]}, {"name": "max_pooling2d_3", "class_name": "MaxPooling2D", "config": {"pool_size": [3, 3], "name": "max_pooling2d_3", "padding": "valid", "data_format": "channels_last", "strides": [2, 2], "trainable": false}, "inbound_nodes": [[["mixed2", 0, 0, {}]]]}, {"name": "mixed3", "class_name": "Concatenate", "config": {"name": "mixed3", "trainable": false, "axis": 3}, "inbound_nodes": [[["activation_27", 0, 0, {}], ["activation_30", 0, 0, {}], ["max_pooling2d_3", 0, 0, {}]]]}, {"name": "conv2d_35", "class_name": "Conv2D", "config": {"kernel_constraint": null, "strides": [1, 1], "activation": "linear", "kernel_initializer": {"class_name": "VarianceScaling", "config": {"scale": 1.0, "mode": "fan_avg", "distribution": "uniform", "seed": null}}, "bias_initializer": {"class_name": "Zeros", "config": {}}, "padding": "same", "data_format": "channels_last", "kernel_size": [1, 1], "activity_regularizer": null, "filters": 128, "bias_regularizer": null, "kernel_regularizer": null, "use_bias": false, "bias_constraint": null, "dilation_rate": [1, 1], "name": "conv2d_35", "trainable": false}, "inbound_nodes": [[["mixed3", 0, 0, {}]]]}, {"name": "batch_normalization_35", "class_name": "BatchNormalization", "config": {"beta_constraint": null, "trainable": false, "name": "batch_normalization_35", "gamma_regularizer": null, "beta_regularizer": null, "center": true, "momentum": 0.99, "scale": false, "moving_variance_initializer": {"class_name": "Ones", "config": {}}, "moving_mean_initializer": {"class_name": "Zeros", "config": {}}, "axis": 3, "gamma_initializer": {"class_name": "Ones", "config": {}}, "gamma_constraint": null, "epsilon": 0.001, "beta_initializer": {"class_name": "Zeros", "config": {}}}, "inbound_nodes": [[["conv2d_35", 0, 0, {}]]]}, {"name": "activation_35", "class_name": "Activation", "config": {"name": "activation_35", "activation": "relu", "trainable": false}, "inbound_nodes": [[["batch_normalization_35", 0, 0, {}]]]}, {"name": "conv2d_36", "class_name": "Conv2D", "config": {"kernel_constraint": null, "strides": [1, 1], "activation": "linear", "kernel_initializer": {"class_name": "VarianceScaling", "config": {"scale": 1.0, "mode": "fan_avg", "distribution": "uniform", "seed": null}}, "bias_initializer": {"class_name": "Zeros", "config": {}}, "padding": "same", "data_format": "channels_last", "kernel_size": [7, 1], "activity_regularizer": null, "filters": 128, "bias_regularizer": null, "kernel_regularizer": null, "use_bias": false, "bias_constraint": null, "dilation_rate": [1, 1], "name": "conv2d_36", "trainable": false}, "inbound_nodes": [[["activation_35", 0, 0, {}]]]}, {"name": "batch_normalization_36", "class_name": "BatchNormalization", "config": {"beta_constraint": null, "trainable": false, "name": "batch_normalization_36", "gamma_regularizer": null, "beta_regularizer": null, "center": true, "momentum": 0.99, "scale": false, "moving_variance_initializer": {"class_name": "Ones", "config": {}}, "moving_mean_initializer": {"class_name": "Zeros", "config": {}}, "axis": 3, "gamma_initializer": {"class_name": "Ones", "config": {}}, "gamma_constraint": null, "epsilon": 0.001, "beta_initializer": {"class_name": "Zeros", "config": {}}}, "inbound_nodes": [[["conv2d_36", 0, 0, {}]]]}, {"name": "activation_36", "class_name": "Activation", "config": {"name": "activation_36", "activation": "relu", "trainable": false}, "inbound_nodes": [[["batch_normalization_36", 0, 0, {}]]]}, {"name": "conv2d_32", "class_name": "Conv2D", "config": {"kernel_constraint": null, "strides": [1, 1], "activation": "linear", "kernel_initializer": {"class_name": "VarianceScaling", "config": {"scale": 1.0, "mode": "fan_avg", "distribution": "uniform", "seed": null}}, "bias_initializer": {"class_name": "Zeros", "config": {}}, "padding": "same", "data_format": "channels_last", "kernel_size": [1, 1], "activity_regularizer": null, "filters": 128, "bias_regularizer": null, "kernel_regularizer": null, "use_bias": false, "bias_constraint": null, "dilation_rate": [1, 1], "name": "conv2d_32", "trainable": false}, "inbound_nodes": [[["mixed3", 0, 0, {}]]]}, {"name": "conv2d_37", "class_name": "Conv2D", "config": {"kernel_constraint": null, "strides": [1, 1], "activation": "linear", "kernel_initializer": {"class_name": "VarianceScaling", "config": {"scale": 1.0, "mode": "fan_avg", "distribution": "uniform", "seed": null}}, "bias_initializer": {"class_name": "Zeros", "config": {}}, "padding": "same", "data_format": "channels_last", "kernel_size": [1, 7], "activity_regularizer": null, "filters": 128, "bias_regularizer": null, "kernel_regularizer": null, "use_bias": false, "bias_constraint": null, "dilation_rate": [1, 1], "name": "conv2d_37", "trainable": false}, "inbound_nodes": [[["activation_36", 0, 0, {}]]]}, {"name": "batch_normalization_32", "class_name": "BatchNormalization", "config": {"beta_constraint": null, "trainable": false, "name": "batch_normalization_32", "gamma_regularizer": null, "beta_regularizer": null, "center": true, "momentum": 0.99, "scale": false, "moving_variance_initializer": {"class_name": "Ones", "config": {}}, "moving_mean_initializer": {"class_name": "Zeros", "config": {}}, "axis": 3, "gamma_initializer": {"class_name": "Ones", "config": {}}, "gamma_constraint": null, "epsilon": 0.001, "beta_initializer": {"class_name": "Zeros", "config": {}}}, "inbound_nodes": [[["conv2d_32", 0, 0, {}]]]}, {"name": "batch_normalization_37", "class_name": "BatchNormalization", "config": {"beta_constraint": null, "trainable": false, "name": "batch_normalization_37", "gamma_regularizer": null, "beta_regularizer": null, "center": true, "momentum": 0.99, "scale": false, "moving_variance_initializer": {"class_name": "Ones", "config": {}}, "moving_mean_initializer": {"class_name": "Zeros", "config": {}}, "axis": 3, "gamma_initializer": {"class_name": "Ones", "config": {}}, "gamma_constraint": null, "epsilon": 0.001, "beta_initializer": {"class_name": "Zeros", "config": {}}}, "inbound_nodes": [[["conv2d_37", 0, 0, {}]]]}, {"name": "activation_32", "class_name": "Activation", "config": {"name": "activation_32", "activation": "relu", "trainable": false}, "inbound_nodes": [[["batch_normalization_32", 0, 0, {}]]]}, {"name": "activation_37", "class_name": "Activation", "config": {"name": "activation_37", "activation": "relu", "trainable": false}, "inbound_nodes": [[["batch_normalization_37", 0, 0, {}]]]}, {"name": "conv2d_33", "class_name": "Conv2D", "config": {"kernel_constraint": null, "strides": [1, 1], "activation": "linear", "kernel_initializer": {"class_name": "VarianceScaling", "config": {"scale": 1.0, "mode": "fan_avg", "distribution": "uniform", "seed": null}}, "bias_initializer": {"class_name": "Zeros", "config": {}}, "padding": "same", "data_format": "channels_last", "kernel_size": [1, 7], "activity_regularizer": null, "filters": 128, "bias_regularizer": null, "kernel_regularizer": null, "use_bias": false, "bias_constraint": null, "dilation_rate": [1, 1], "name": "conv2d_33", "trainable": false}, "inbound_nodes": [[["activation_32", 0, 0, {}]]]}, {"name": "conv2d_38", "class_name": "Conv2D", "config": {"kernel_constraint": null, "strides": [1, 1], "activation": "linear", "kernel_initializer": {"class_name": "VarianceScaling", "config": {"scale": 1.0, "mode": "fan_avg", "distribution": "uniform", "seed": null}}, "bias_initializer": {"class_name": "Zeros", "config": {}}, "padding": "same", "data_format": "channels_last", "kernel_size": [7, 1], "activity_regularizer": null, "filters": 128, "bias_regularizer": null, "kernel_regularizer": null, "use_bias": false, "bias_constraint": null, "dilation_rate": [1, 1], "name": "conv2d_38", "trainable": false}, "inbound_nodes": [[["activation_37", 0, 0, {}]]]}, {"name": "batch_normalization_33", "class_name": "BatchNormalization", "config": {"beta_constraint": null, "trainable": false, "name": "batch_normalization_33", "gamma_regularizer": null, "beta_regularizer": null, "center": true, "momentum": 0.99, "scale": false, "moving_variance_initializer": {"class_name": "Ones", "config": {}}, "moving_mean_initializer": {"class_name": "Zeros", "config": {}}, "axis": 3, "gamma_initializer": {"class_name": "Ones", "config": {}}, "gamma_constraint": null, "epsilon": 0.001, "beta_initializer": {"class_name": "Zeros", "config": {}}}, "inbound_nodes": [[["conv2d_33", 0, 0, {}]]]}, {"name": "batch_normalization_38", "class_name": "BatchNormalization", "config": {"beta_constraint": null, "trainable": false, "name": "batch_normalization_38", "gamma_regularizer": null, "beta_regularizer": null, "center": true, "momentum": 0.99, "scale": false, "moving_variance_initializer": {"class_name": "Ones", "config": {}}, "moving_mean_initializer": {"class_name": "Zeros", "config": {}}, "axis": 3, "gamma_initializer": {"class_name": "Ones", "config": {}}, "gamma_constraint": null, "epsilon": 0.001, "beta_initializer": {"class_name": "Zeros", "config": {}}}, "inbound_nodes": [[["conv2d_38", 0, 0, {}]]]}, {"name": "activation_33", "class_name": "Activation", "config": {"name": "activation_33", "activation": "relu", "trainable": false}, "inbound_nodes": [[["batch_normalization_33", 0, 0, {}]]]}, {"name": "activation_38", "class_name": "Activation", "config": {"name": "activation_38", "activation": "relu", "trainable": false}, "inbound_nodes": [[["batch_normalization_38", 0, 0, {}]]]}, {"name": "average_pooling2d_4", "class_name": "AveragePooling2D", "config": {"pool_size": [3, 3], "name": "average_pooling2d_4", "padding": "same", "data_format": "channels_last", "strides": [1, 1], "trainable": false}, "inbound_nodes": [[["mixed3", 0, 0, {}]]]}, {"name": "conv2d_31", "class_name": "Conv2D", "config": {"kernel_constraint": null, "strides": [1, 1], "activation": "linear", "kernel_initializer": {"class_name": "VarianceScaling", "config": {"scale": 1.0, "mode": "fan_avg", "distribution": "uniform", "seed": null}}, "bias_initializer": {"class_name": "Zeros", "config": {}}, "padding": "same", "data_format": "channels_last", "kernel_size": [1, 1], "activity_regularizer": null, "filters": 192, "bias_regularizer": null, "kernel_regularizer": null, "use_bias": false, "bias_constraint": null, "dilation_rate": [1, 1], "name": "conv2d_31", "trainable": false}, "inbound_nodes": [[["mixed3", 0, 0, {}]]]}, {"name": "conv2d_34", "class_name": "Conv2D", "config": {"kernel_constraint": null, "strides": [1, 1], "activation": "linear", "kernel_initializer": {"class_name": "VarianceScaling", "config": {"scale": 1.0, "mode": "fan_avg", "distribution": "uniform", "seed": null}}, "bias_initializer": {"class_name": "Zeros", "config": {}}, "padding": "same", "data_format": "channels_last", "kernel_size": [7, 1], "activity_regularizer": null, "filters": 192, "bias_regularizer": null, "kernel_regularizer": null, "use_bias": false, "bias_constraint": null, "dilation_rate": [1, 1], "name": "conv2d_34", "trainable": false}, "inbound_nodes": [[["activation_33", 0, 0, {}]]]}, {"name": "conv2d_39", "class_name": "Conv2D", "config": {"kernel_constraint": null, "strides": [1, 1], "activation": "linear", "kernel_initializer": {"class_name": "VarianceScaling", "config": {"scale": 1.0, "mode": "fan_avg", "distribution": "uniform", "seed": null}}, "bias_initializer": {"class_name": "Zeros", "config": {}}, "padding": "same", "data_format": "channels_last", "kernel_size": [1, 7], "activity_regularizer": null, "filters": 192, "bias_regularizer": null, "kernel_regularizer": null, "use_bias": false, "bias_constraint": null, "dilation_rate": [1, 1], "name": "conv2d_39", "trainable": false}, "inbound_nodes": [[["activation_38", 0, 0, {}]]]}, {"name": "conv2d_40", "class_name": "Conv2D", "config": {"kernel_constraint": null, "strides": [1, 1], "activation": "linear", "kernel_initializer": {"class_name": "VarianceScaling", "config": {"scale": 1.0, "mode": "fan_avg", "distribution": "uniform", "seed": null}}, "bias_initializer": {"class_name": "Zeros", "config": {}}, "padding": "same", "data_format": "channels_last", "kernel_size": [1, 1], "activity_regularizer": null, "filters": 192, "bias_regularizer": null, "kernel_regularizer": null, "use_bias": false, "bias_constraint": null, "dilation_rate": [1, 1], "name": "conv2d_40", "trainable": false}, "inbound_nodes": [[["average_pooling2d_4", 0, 0, {}]]]}, {"name": "batch_normalization_31", "class_name": "BatchNormalization", "config": {"beta_constraint": null, "trainable": false, "name": "batch_normalization_31", "gamma_regularizer": null, "beta_regularizer": null, "center": true, "momentum": 0.99, "scale": false, "moving_variance_initializer": {"class_name": "Ones", "config": {}}, "moving_mean_initializer": {"class_name": "Zeros", "config": {}}, "axis": 3, "gamma_initializer": {"class_name": "Ones", "config": {}}, "gamma_constraint": null, "epsilon": 0.001, "beta_initializer": {"class_name": "Zeros", "config": {}}}, "inbound_nodes": [[["conv2d_31", 0, 0, {}]]]}, {"name": "batch_normalization_34", "class_name": "BatchNormalization", "config": {"beta_constraint": null, "trainable": false, "name": "batch_normalization_34", "gamma_regularizer": null, "beta_regularizer": null, "center": true, "momentum": 0.99, "scale": false, "moving_variance_initializer": {"class_name": "Ones", "config": {}}, "moving_mean_initializer": {"class_name": "Zeros", "config": {}}, "axis": 3, "gamma_initializer": {"class_name": "Ones", "config": {}}, "gamma_constraint": null, "epsilon": 0.001, "beta_initializer": {"class_name": "Zeros", "config": {}}}, "inbound_nodes": [[["conv2d_34", 0, 0, {}]]]}, {"name": "batch_normalization_39", "class_name": "BatchNormalization", "config": {"beta_constraint": null, "trainable": false, "name": "batch_normalization_39", "gamma_regularizer": null, "beta_regularizer": null, "center": true, "momentum": 0.99, "scale": false, "moving_variance_initializer": {"class_name": "Ones", "config": {}}, "moving_mean_initializer": {"class_name": "Zeros", "config": {}}, "axis": 3, "gamma_initializer": {"class_name": "Ones", "config": {}}, "gamma_constraint": null, "epsilon": 0.001, "beta_initializer": {"class_name": "Zeros", "config": {}}}, "inbound_nodes": [[["conv2d_39", 0, 0, {}]]]}, {"name": "batch_normalization_40", "class_name": "BatchNormalization", "config": {"beta_constraint": null, "trainable": false, "name": "batch_normalization_40", "gamma_regularizer": null, "beta_regularizer": null, "center": true, "momentum": 0.99, "scale": false, "moving_variance_initializer": {"class_name": "Ones", "config": {}}, "moving_mean_initializer": {"class_name": "Zeros", "config": {}}, "axis": 3, "gamma_initializer": {"class_name": "Ones", "config": {}}, "gamma_constraint": null, "epsilon": 0.001, "beta_initializer": {"class_name": "Zeros", "config": {}}}, "inbound_nodes": [[["conv2d_40", 0, 0, {}]]]}, {"name": "activation_31", "class_name": "Activation", "config": {"name": "activation_31", "activation": "relu", "trainable": false}, "inbound_nodes": [[["batch_normalization_31", 0, 0, {}]]]}, {"name": "activation_34", "class_name": "Activation", "config": {"name": "activation_34", "activation": "relu", "trainable": false}, "inbound_nodes": [[["batch_normalization_34", 0, 0, {}]]]}, {"name": "activation_39", "class_name": "Activation", "config": {"name": "activation_39", "activation": "relu", "trainable": false}, "inbound_nodes": [[["batch_normalization_39", 0, 0, {}]]]}, {"name": "activation_40", "class_name": "Activation", "config": {"name": "activation_40", "activation": "relu", "trainable": false}, "inbound_nodes": [[["batch_normalization_40", 0, 0, {}]]]}, {"name": "mixed4", "class_name": "Concatenate", "config": {"name": "mixed4", "trainable": false, "axis": 3}, "inbound_nodes": [[["activation_31", 0, 0, {}], ["activation_34", 0, 0, {}], ["activation_39", 0, 0, {}], ["activation_40", 0, 0, {}]]]}, {"name": "conv2d_45", "class_name": "Conv2D", "config": {"kernel_constraint": null, "strides": [1, 1], "activation": "linear", "kernel_initializer": {"class_name": "VarianceScaling", "config": {"scale": 1.0, "mode": "fan_avg", "distribution": "uniform", "seed": null}}, "bias_initializer": {"class_name": "Zeros", "config": {}}, "padding": "same", "data_format": "channels_last", "kernel_size": [1, 1], "activity_regularizer": null, "filters": 160, "bias_regularizer": null, "kernel_regularizer": null, "use_bias": false, "bias_constraint": null, "dilation_rate": [1, 1], "name": "conv2d_45", "trainable": false}, "inbound_nodes": [[["mixed4", 0, 0, {}]]]}, {"name": "batch_normalization_45", "class_name": "BatchNormalization", "config": {"beta_constraint": null, "trainable": false, "name": "batch_normalization_45", "gamma_regularizer": null, "beta_regularizer": null, "center": true, "momentum": 0.99, "scale": false, "moving_variance_initializer": {"class_name": "Ones", "config": {}}, "moving_mean_initializer": {"class_name": "Zeros", "config": {}}, "axis": 3, "gamma_initializer": {"class_name": "Ones", "config": {}}, "gamma_constraint": null, "epsilon": 0.001, "beta_initializer": {"class_name": "Zeros", "config": {}}}, "inbound_nodes": [[["conv2d_45", 0, 0, {}]]]}, {"name": "activation_45", "class_name": "Activation", "config": {"name": "activation_45", "activation": "relu", "trainable": false}, "inbound_nodes": [[["batch_normalization_45", 0, 0, {}]]]}, {"name": "conv2d_46", "class_name": "Conv2D", "config": {"kernel_constraint": null, "strides": [1, 1], "activation": "linear", "kernel_initializer": {"class_name": "VarianceScaling", "config": {"scale": 1.0, "mode": "fan_avg", "distribution": "uniform", "seed": null}}, "bias_initializer": {"class_name": "Zeros", "config": {}}, "padding": "same", "data_format": "channels_last", "kernel_size": [7, 1], "activity_regularizer": null, "filters": 160, "bias_regularizer": null, "kernel_regularizer": null, "use_bias": false, "bias_constraint": null, "dilation_rate": [1, 1], "name": "conv2d_46", "trainable": false}, "inbound_nodes": [[["activation_45", 0, 0, {}]]]}, {"name": "batch_normalization_46", "class_name": "BatchNormalization", "config": {"beta_constraint": null, "trainable": false, "name": "batch_normalization_46", "gamma_regularizer": null, "beta_regularizer": null, "center": true, "momentum": 0.99, "scale": false, "moving_variance_initializer": {"class_name": "Ones", "config": {}}, "moving_mean_initializer": {"class_name": "Zeros", "config": {}}, "axis": 3, "gamma_initializer": {"class_name": "Ones", "config": {}}, "gamma_constraint": null, "epsilon": 0.001, "beta_initializer": {"class_name": "Zeros", "config": {}}}, "inbound_nodes": [[["conv2d_46", 0, 0, {}]]]}, {"name": "activation_46", "class_name": "Activation", "config": {"name": "activation_46", "activation": "relu", "trainable": false}, "inbound_nodes": [[["batch_normalization_46", 0, 0, {}]]]}, {"name": "conv2d_42", "class_name": "Conv2D", "config": {"kernel_constraint": null, "strides": [1, 1], "activation": "linear", "kernel_initializer": {"class_name": "VarianceScaling", "config": {"scale": 1.0, "mode": "fan_avg", "distribution": "uniform", "seed": null}}, "bias_initializer": {"class_name": "Zeros", "config": {}}, "padding": "same", "data_format": "channels_last", "kernel_size": [1, 1], "activity_regularizer": null, "filters": 160, "bias_regularizer": null, "kernel_regularizer": null, "use_bias": false, "bias_constraint": null, "dilation_rate": [1, 1], "name": "conv2d_42", "trainable": false}, "inbound_nodes": [[["mixed4", 0, 0, {}]]]}, {"name": "conv2d_47", "class_name": "Conv2D", "config": {"kernel_constraint": null, "strides": [1, 1], "activation": "linear", "kernel_initializer": {"class_name": "VarianceScaling", "config": {"scale": 1.0, "mode": "fan_avg", "distribution": "uniform", "seed": null}}, "bias_initializer": {"class_name": "Zeros", "config": {}}, "padding": "same", "data_format": "channels_last", "kernel_size": [1, 7], "activity_regularizer": null, "filters": 160, "bias_regularizer": null, "kernel_regularizer": null, "use_bias": false, "bias_constraint": null, "dilation_rate": [1, 1], "name": "conv2d_47", "trainable": false}, "inbound_nodes": [[["activation_46", 0, 0, {}]]]}, {"name": "batch_normalization_42", "class_name": "BatchNormalization", "config": {"beta_constraint": null, "trainable": false, "name": "batch_normalization_42", "gamma_regularizer": null, "beta_regularizer": null, "center": true, "momentum": 0.99, "scale": false, "moving_variance_initializer": {"class_name": "Ones", "config": {}}, "moving_mean_initializer": {"class_name": "Zeros", "config": {}}, "axis": 3, "gamma_initializer": {"class_name": "Ones", "config": {}}, "gamma_constraint": null, "epsilon": 0.001, "beta_initializer": {"class_name": "Zeros", "config": {}}}, "inbound_nodes": [[["conv2d_42", 0, 0, {}]]]}, {"name": "batch_normalization_47", "class_name": "BatchNormalization", "config": {"beta_constraint": null, "trainable": false, "name": "batch_normalization_47", "gamma_regularizer": null, "beta_regularizer": null, "center": true, "momentum": 0.99, "scale": false, "moving_variance_initializer": {"class_name": "Ones", "config": {}}, "moving_mean_initializer": {"class_name": "Zeros", "config": {}}, "axis": 3, "gamma_initializer": {"class_name": "Ones", "config": {}}, "gamma_constraint": null, "epsilon": 0.001, "beta_initializer": {"class_name": "Zeros", "config": {}}}, "inbound_nodes": [[["conv2d_47", 0, 0, {}]]]}, {"name": "activation_42", "class_name": "Activation", "config": {"name": "activation_42", "activation": "relu", "trainable": false}, "inbound_nodes": [[["batch_normalization_42", 0, 0, {}]]]}, {"name": "activation_47", "class_name": "Activation", "config": {"name": "activation_47", "activation": "relu", "trainable": false}, "inbound_nodes": [[["batch_normalization_47", 0, 0, {}]]]}, {"name": "conv2d_43", "class_name": "Conv2D", "config": {"kernel_constraint": null, "strides": [1, 1], "activation": "linear", "kernel_initializer": {"class_name": "VarianceScaling", "config": {"scale": 1.0, "mode": "fan_avg", "distribution": "uniform", "seed": null}}, "bias_initializer": {"class_name": "Zeros", "config": {}}, "padding": "same", "data_format": "channels_last", "kernel_size": [1, 7], "activity_regularizer": null, "filters": 160, "bias_regularizer": null, "kernel_regularizer": null, "use_bias": false, "bias_constraint": null, "dilation_rate": [1, 1], "name": "conv2d_43", "trainable": false}, "inbound_nodes": [[["activation_42", 0, 0, {}]]]}, {"name": "conv2d_48", "class_name": "Conv2D", "config": {"kernel_constraint": null, "strides": [1, 1], "activation": "linear", "kernel_initializer": {"class_name": "VarianceScaling", "config": {"scale": 1.0, "mode": "fan_avg", "distribution": "uniform", "seed": null}}, "bias_initializer": {"class_name": "Zeros", "config": {}}, "padding": "same", "data_format": "channels_last", "kernel_size": [7, 1], "activity_regularizer": null, "filters": 160, "bias_regularizer": null, "kernel_regularizer": null, "use_bias": false, "bias_constraint": null, "dilation_rate": [1, 1], "name": "conv2d_48", "trainable": false}, "inbound_nodes": [[["activation_47", 0, 0, {}]]]}, {"name": "batch_normalization_43", "class_name": "BatchNormalization", "config": {"beta_constraint": null, "trainable": false, "name": "batch_normalization_43", "gamma_regularizer": null, "beta_regularizer": null, "center": true, "momentum": 0.99, "scale": false, "moving_variance_initializer": {"class_name": "Ones", "config": {}}, "moving_mean_initializer": {"class_name": "Zeros", "config": {}}, "axis": 3, "gamma_initializer": {"class_name": "Ones", "config": {}}, "gamma_constraint": null, "epsilon": 0.001, "beta_initializer": {"class_name": "Zeros", "config": {}}}, "inbound_nodes": [[["conv2d_43", 0, 0, {}]]]}, {"name": "batch_normalization_48", "class_name": "BatchNormalization", "config": {"beta_constraint": null, "trainable": false, "name": "batch_normalization_48", "gamma_regularizer": null, "beta_regularizer": null, "center": true, "momentum": 0.99, "scale": false, "moving_variance_initializer": {"class_name": "Ones", "config": {}}, "moving_mean_initializer": {"class_name": "Zeros", "config": {}}, "axis": 3, "gamma_initializer": {"class_name": "Ones", "config": {}}, "gamma_constraint": null, "epsilon": 0.001, "beta_initializer": {"class_name": "Zeros", "config": {}}}, "inbound_nodes": [[["conv2d_48", 0, 0, {}]]]}, {"name": "activation_43", "class_name": "Activation", "config": {"name": "activation_43", "activation": "relu", "trainable": false}, "inbound_nodes": [[["batch_normalization_43", 0, 0, {}]]]}, {"name": "activation_48", "class_name": "Activation", "config": {"name": "activation_48", "activation": "relu", "trainable": false}, "inbound_nodes": [[["batch_normalization_48", 0, 0, {}]]]}, {"name": "average_pooling2d_5", "class_name": "AveragePooling2D", "config": {"pool_size": [3, 3], "name": "average_pooling2d_5", "padding": "same", "data_format": "channels_last", "strides": [1, 1], "trainable": false}, "inbound_nodes": [[["mixed4", 0, 0, {}]]]}, {"name": "conv2d_41", "class_name": "Conv2D", "config": {"kernel_constraint": null, "strides": [1, 1], "activation": "linear", "kernel_initializer": {"class_name": "VarianceScaling", "config": {"scale": 1.0, "mode": "fan_avg", "distribution": "uniform", "seed": null}}, "bias_initializer": {"class_name": "Zeros", "config": {}}, "padding": "same", "data_format": "channels_last", "kernel_size": [1, 1], "activity_regularizer": null, "filters": 192, "bias_regularizer": null, "kernel_regularizer": null, "use_bias": false, "bias_constraint": null, "dilation_rate": [1, 1], "name": "conv2d_41", "trainable": false}, "inbound_nodes": [[["mixed4", 0, 0, {}]]]}, {"name": "conv2d_44", "class_name": "Conv2D", "config": {"kernel_constraint": null, "strides": [1, 1], "activation": "linear", "kernel_initializer": {"class_name": "VarianceScaling", "config": {"scale": 1.0, "mode": "fan_avg", "distribution": "uniform", "seed": null}}, "bias_initializer": {"class_name": "Zeros", "config": {}}, "padding": "same", "data_format": "channels_last", "kernel_size": [7, 1], "activity_regularizer": null, "filters": 192, "bias_regularizer": null, "kernel_regularizer": null, "use_bias": false, "bias_constraint": null, "dilation_rate": [1, 1], "name": "conv2d_44", "trainable": false}, "inbound_nodes": [[["activation_43", 0, 0, {}]]]}, {"name": "conv2d_49", "class_name": "Conv2D", "config": {"kernel_constraint": null, "strides": [1, 1], "activation": "linear", "kernel_initializer": {"class_name": "VarianceScaling", "config": {"scale": 1.0, "mode": "fan_avg", "distribution": "uniform", "seed": null}}, "bias_initializer": {"class_name": "Zeros", "config": {}}, "padding": "same", "data_format": "channels_last", "kernel_size": [1, 7], "activity_regularizer": null, "filters": 192, "bias_regularizer": null, "kernel_regularizer": null, "use_bias": false, "bias_constraint": null, "dilation_rate": [1, 1], "name": "conv2d_49", "trainable": false}, "inbound_nodes": [[["activation_48", 0, 0, {}]]]}, {"name": "conv2d_50", "class_name": "Conv2D", "config": {"kernel_constraint": null, "strides": [1, 1], "activation": "linear", "kernel_initializer": {"class_name": "VarianceScaling", "config": {"scale": 1.0, "mode": "fan_avg", "distribution": "uniform", "seed": null}}, "bias_initializer": {"class_name": "Zeros", "config": {}}, "padding": "same", "data_format": "channels_last", "kernel_size": [1, 1], "activity_regularizer": null, "filters": 192, "bias_regularizer": null, "kernel_regularizer": null, "use_bias": false, "bias_constraint": null, "dilation_rate": [1, 1], "name": "conv2d_50", "trainable": false}, "inbound_nodes": [[["average_pooling2d_5", 0, 0, {}]]]}, {"name": "batch_normalization_41", "class_name": "BatchNormalization", "config": {"beta_constraint": null, "trainable": false, "name": "batch_normalization_41", "gamma_regularizer": null, "beta_regularizer": null, "center": true, "momentum": 0.99, "scale": false, "moving_variance_initializer": {"class_name": "Ones", "config": {}}, "moving_mean_initializer": {"class_name": "Zeros", "config": {}}, "axis": 3, "gamma_initializer": {"class_name": "Ones", "config": {}}, "gamma_constraint": null, "epsilon": 0.001, "beta_initializer": {"class_name": "Zeros", "config": {}}}, "inbound_nodes": [[["conv2d_41", 0, 0, {}]]]}, {"name": "batch_normalization_44", "class_name": "BatchNormalization", "config": {"beta_constraint": null, "trainable": false, "name": "batch_normalization_44", "gamma_regularizer": null, "beta_regularizer": null, "center": true, "momentum": 0.99, "scale": false, "moving_variance_initializer": {"class_name": "Ones", "config": {}}, "moving_mean_initializer": {"class_name": "Zeros", "config": {}}, "axis": 3, "gamma_initializer": {"class_name": "Ones", "config": {}}, "gamma_constraint": null, "epsilon": 0.001, "beta_initializer": {"class_name": "Zeros", "config": {}}}, "inbound_nodes": [[["conv2d_44", 0, 0, {}]]]}, {"name": "batch_normalization_49", "class_name": "BatchNormalization", "config": {"beta_constraint": null, "trainable": false, "name": "batch_normalization_49", "gamma_regularizer": null, "beta_regularizer": null, "center": true, "momentum": 0.99, "scale": false, "moving_variance_initializer": {"class_name": "Ones", "config": {}}, "moving_mean_initializer": {"class_name": "Zeros", "config": {}}, "axis": 3, "gamma_initializer": {"class_name": "Ones", "config": {}}, "gamma_constraint": null, "epsilon": 0.001, "beta_initializer": {"class_name": "Zeros", "config": {}}}, "inbound_nodes": [[["conv2d_49", 0, 0, {}]]]}, {"name": "batch_normalization_50", "class_name": "BatchNormalization", "config": {"beta_constraint": null, "trainable": false, "name": "batch_normalization_50", "gamma_regularizer": null, "beta_regularizer": null, "center": true, "momentum": 0.99, "scale": false, "moving_variance_initializer": {"class_name": "Ones", "config": {}}, "moving_mean_initializer": {"class_name": "Zeros", "config": {}}, "axis": 3, "gamma_initializer": {"class_name": "Ones", "config": {}}, "gamma_constraint": null, "epsilon": 0.001, "beta_initializer": {"class_name": "Zeros", "config": {}}}, "inbound_nodes": [[["conv2d_50", 0, 0, {}]]]}, {"name": "activation_41", "class_name": "Activation", "config": {"name": "activation_41", "activation": "relu", "trainable": false}, "inbound_nodes": [[["batch_normalization_41", 0, 0, {}]]]}, {"name": "activation_44", "class_name": "Activation", "config": {"name": "activation_44", "activation": "relu", "trainable": false}, "inbound_nodes": [[["batch_normalization_44", 0, 0, {}]]]}, {"name": "activation_49", "class_name": "Activation", "config": {"name": "activation_49", "activation": "relu", "trainable": false}, "inbound_nodes": [[["batch_normalization_49", 0, 0, {}]]]}, {"name": "activation_50", "class_name": "Activation", "config": {"name": "activation_50", "activation": "relu", "trainable": false}, "inbound_nodes": [[["batch_normalization_50", 0, 0, {}]]]}, {"name": "mixed5", "class_name": "Concatenate", "config": {"name": "mixed5", "trainable": false, "axis": 3}, "inbound_nodes": [[["activation_41", 0, 0, {}], ["activation_44", 0, 0, {}], ["activation_49", 0, 0, {}], ["activation_50", 0, 0, {}]]]}, {"name": "conv2d_55", "class_name": "Conv2D", "config": {"kernel_constraint": null, "strides": [1, 1], "activation": "linear", "kernel_initializer": {"class_name": "VarianceScaling", "config": {"scale": 1.0, "mode": "fan_avg", "distribution": "uniform", "seed": null}}, "bias_initializer": {"class_name": "Zeros", "config": {}}, "padding": "same", "data_format": "channels_last", "kernel_size": [1, 1], "activity_regularizer": null, "filters": 160, "bias_regularizer": null, "kernel_regularizer": null, "use_bias": false, "bias_constraint": null, "dilation_rate": [1, 1], "name": "conv2d_55", "trainable": false}, "inbound_nodes": [[["mixed5", 0, 0, {}]]]}, {"name": "batch_normalization_55", "class_name": "BatchNormalization", "config": {"beta_constraint": null, "trainable": false, "name": "batch_normalization_55", "gamma_regularizer": null, "beta_regularizer": null, "center": true, "momentum": 0.99, "scale": false, "moving_variance_initializer": {"class_name": "Ones", "config": {}}, "moving_mean_initializer": {"class_name": "Zeros", "config": {}}, "axis": 3, "gamma_initializer": {"class_name": "Ones", "config": {}}, "gamma_constraint": null, "epsilon": 0.001, "beta_initializer": {"class_name": "Zeros", "config": {}}}, "inbound_nodes": [[["conv2d_55", 0, 0, {}]]]}, {"name": "activation_55", "class_name": "Activation", "config": {"name": "activation_55", "activation": "relu", "trainable": false}, "inbound_nodes": [[["batch_normalization_55", 0, 0, {}]]]}, {"name": "conv2d_56", "class_name": "Conv2D", "config": {"kernel_constraint": null, "strides": [1, 1], "activation": "linear", "kernel_initializer": {"class_name": "VarianceScaling", "config": {"scale": 1.0, "mode": "fan_avg", "distribution": "uniform", "seed": null}}, "bias_initializer": {"class_name": "Zeros", "config": {}}, "padding": "same", "data_format": "channels_last", "kernel_size": [7, 1], "activity_regularizer": null, "filters": 160, "bias_regularizer": null, "kernel_regularizer": null, "use_bias": false, "bias_constraint": null, "dilation_rate": [1, 1], "name": "conv2d_56", "trainable": false}, "inbound_nodes": [[["activation_55", 0, 0, {}]]]}, {"name": "batch_normalization_56", "class_name": "BatchNormalization", "config": {"beta_constraint": null, "trainable": true, "name": "batch_normalization_56", "gamma_regularizer": null, "beta_regularizer": null, "center": true, "momentum": 0.99, "scale": false, "moving_variance_initializer": {"class_name": "Ones", "config": {}}, "moving_mean_initializer": {"class_name": "Zeros", "config": {}}, "axis": 3, "gamma_initializer": {"class_name": "Ones", "config": {}}, "gamma_constraint": null, "epsilon": 0.001, "beta_initializer": {"class_name": "Zeros", "config": {}}}, "inbound_nodes": [[["conv2d_56", 0, 0, {}]]]}, {"name": "activation_56", "class_name": "Activation", "config": {"name": "activation_56", "activation": "relu", "trainable": true}, "inbound_nodes": [[["batch_normalization_56", 0, 0, {}]]]}, {"name": "conv2d_52", "class_name": "Conv2D", "config": {"kernel_constraint": null, "strides": [1, 1], "activation": "linear", "kernel_initializer": {"class_name": "VarianceScaling", "config": {"scale": 1.0, "mode": "fan_avg", "distribution": "uniform", "seed": null}}, "bias_initializer": {"class_name": "Zeros", "config": {}}, "padding": "same", "data_format": "channels_last", "kernel_size": [1, 1], "activity_regularizer": null, "filters": 160, "bias_regularizer": null, "kernel_regularizer": null, "use_bias": false, "bias_constraint": null, "dilation_rate": [1, 1], "name": "conv2d_52", "trainable": true}, "inbound_nodes": [[["mixed5", 0, 0, {}]]]}, {"name": "conv2d_57", "class_name": "Conv2D", "config": {"kernel_constraint": null, "strides": [1, 1], "activation": "linear", "kernel_initializer": {"class_name": "VarianceScaling", "config": {"scale": 1.0, "mode": "fan_avg", "distribution": "uniform", "seed": null}}, "bias_initializer": {"class_name": "Zeros", "config": {}}, "padding": "same", "data_format": "channels_last", "kernel_size": [1, 7], "activity_regularizer": null, "filters": 160, "bias_regularizer": null, "kernel_regularizer": null, "use_bias": false, "bias_constraint": null, "dilation_rate": [1, 1], "name": "conv2d_57", "trainable": true}, "inbound_nodes": [[["activation_56", 0, 0, {}]]]}, {"name": "batch_normalization_52", "class_name": "BatchNormalization", "config": {"beta_constraint": null, "trainable": true, "name": "batch_normalization_52", "gamma_regularizer": null, "beta_regularizer": null, "center": true, "momentum": 0.99, "scale": false, "moving_variance_initializer": {"class_name": "Ones", "config": {}}, "moving_mean_initializer": {"class_name": "Zeros", "config": {}}, "axis": 3, "gamma_initializer": {"class_name": "Ones", "config": {}}, "gamma_constraint": null, "epsilon": 0.001, "beta_initializer": {"class_name": "Zeros", "config": {}}}, "inbound_nodes": [[["conv2d_52", 0, 0, {}]]]}, {"name": "batch_normalization_57", "class_name": "BatchNormalization", "config": {"beta_constraint": null, "trainable": true, "name": "batch_normalization_57", "gamma_regularizer": null, "beta_regularizer": null, "center": true, "momentum": 0.99, "scale": false, "moving_variance_initializer": {"class_name": "Ones", "config": {}}, "moving_mean_initializer": {"class_name": "Zeros", "config": {}}, "axis": 3, "gamma_initializer": {"class_name": "Ones", "config": {}}, "gamma_constraint": null, "epsilon": 0.001, "beta_initializer": {"class_name": "Zeros", "config": {}}}, "inbound_nodes": [[["conv2d_57", 0, 0, {}]]]}, {"name": "activation_52", "class_name": "Activation", "config": {"name": "activation_52", "activation": "relu", "trainable": true}, "inbound_nodes": [[["batch_normalization_52", 0, 0, {}]]]}, {"name": "activation_57", "class_name": "Activation", "config": {"name": "activation_57", "activation": "relu", "trainable": true}, "inbound_nodes": [[["batch_normalization_57", 0, 0, {}]]]}, {"name": "conv2d_53", "class_name": "Conv2D", "config": {"kernel_constraint": null, "strides": [1, 1], "activation": "linear", "kernel_initializer": {"class_name": "VarianceScaling", "config": {"scale": 1.0, "mode": "fan_avg", "distribution": "uniform", "seed": null}}, "bias_initializer": {"class_name": "Zeros", "config": {}}, "padding": "same", "data_format": "channels_last", "kernel_size": [1, 7], "activity_regularizer": null, "filters": 160, "bias_regularizer": null, "kernel_regularizer": null, "use_bias": false, "bias_constraint": null, "dilation_rate": [1, 1], "name": "conv2d_53", "trainable": true}, "inbound_nodes": [[["activation_52", 0, 0, {}]]]}, {"name": "conv2d_58", "class_name": "Conv2D", "config": {"kernel_constraint": null, "strides": [1, 1], "activation": "linear", "kernel_initializer": {"class_name": "VarianceScaling", "config": {"scale": 1.0, "mode": "fan_avg", "distribution": "uniform", "seed": null}}, "bias_initializer": {"class_name": "Zeros", "config": {}}, "padding": "same", "data_format": "channels_last", "kernel_size": [7, 1], "activity_regularizer": null, "filters": 160, "bias_regularizer": null, "kernel_regularizer": null, "use_bias": false, "bias_constraint": null, "dilation_rate": [1, 1], "name": "conv2d_58", "trainable": true}, "inbound_nodes": [[["activation_57", 0, 0, {}]]]}, {"name": "batch_normalization_53", "class_name": "BatchNormalization", "config": {"beta_constraint": null, "trainable": true, "name": "batch_normalization_53", "gamma_regularizer": null, "beta_regularizer": null, "center": true, "momentum": 0.99, "scale": false, "moving_variance_initializer": {"class_name": "Ones", "config": {}}, "moving_mean_initializer": {"class_name": "Zeros", "config": {}}, "axis": 3, "gamma_initializer": {"class_name": "Ones", "config": {}}, "gamma_constraint": null, "epsilon": 0.001, "beta_initializer": {"class_name": "Zeros", "config": {}}}, "inbound_nodes": [[["conv2d_53", 0, 0, {}]]]}, {"name": "batch_normalization_58", "class_name": "BatchNormalization", "config": {"beta_constraint": null, "trainable": true, "name": "batch_normalization_58", "gamma_regularizer": null, "beta_regularizer": null, "center": true, "momentum": 0.99, "scale": false, "moving_variance_initializer": {"class_name": "Ones", "config": {}}, "moving_mean_initializer": {"class_name": "Zeros", "config": {}}, "axis": 3, "gamma_initializer": {"class_name": "Ones", "config": {}}, "gamma_constraint": null, "epsilon": 0.001, "beta_initializer": {"class_name": "Zeros", "config": {}}}, "inbound_nodes": [[["conv2d_58", 0, 0, {}]]]}, {"name": "activation_53", "class_name": "Activation", "config": {"name": "activation_53", "activation": "relu", "trainable": true}, "inbound_nodes": [[["batch_normalization_53", 0, 0, {}]]]}, {"name": "activation_58", "class_name": "Activation", "config": {"name": "activation_58", "activation": "relu", "trainable": true}, "inbound_nodes": [[["batch_normalization_58", 0, 0, {}]]]}, {"name": "average_pooling2d_6", "class_name": "AveragePooling2D", "config": {"pool_size": [3, 3], "name": "average_pooling2d_6", "padding": "same", "data_format": "channels_last", "strides": [1, 1], "trainable": true}, "inbound_nodes": [[["mixed5", 0, 0, {}]]]}, {"name": "conv2d_51", "class_name": "Conv2D", "config": {"kernel_constraint": null, "strides": [1, 1], "activation": "linear", "kernel_initializer": {"class_name": "VarianceScaling", "config": {"scale": 1.0, "mode": "fan_avg", "distribution": "uniform", "seed": null}}, "bias_initializer": {"class_name": "Zeros", "config": {}}, "padding": "same", "data_format": "channels_last", "kernel_size": [1, 1], "activity_regularizer": null, "filters": 192, "bias_regularizer": null, "kernel_regularizer": null, "use_bias": false, "bias_constraint": null, "dilation_rate": [1, 1], "name": "conv2d_51", "trainable": true}, "inbound_nodes": [[["mixed5", 0, 0, {}]]]}, {"name": "conv2d_54", "class_name": "Conv2D", "config": {"kernel_constraint": null, "strides": [1, 1], "activation": "linear", "kernel_initializer": {"class_name": "VarianceScaling", "config": {"scale": 1.0, "mode": "fan_avg", "distribution": "uniform", "seed": null}}, "bias_initializer": {"class_name": "Zeros", "config": {}}, "padding": "same", "data_format": "channels_last", "kernel_size": [7, 1], "activity_regularizer": null, "filters": 192, "bias_regularizer": null, "kernel_regularizer": null, "use_bias": false, "bias_constraint": null, "dilation_rate": [1, 1], "name": "conv2d_54", "trainable": true}, "inbound_nodes": [[["activation_53", 0, 0, {}]]]}, {"name": "conv2d_59", "class_name": "Conv2D", "config": {"kernel_constraint": null, "strides": [1, 1], "activation": "linear", "kernel_initializer": {"class_name": "VarianceScaling", "config": {"scale": 1.0, "mode": "fan_avg", "distribution": "uniform", "seed": null}}, "bias_initializer": {"class_name": "Zeros", "config": {}}, "padding": "same", "data_format": "channels_last", "kernel_size": [1, 7], "activity_regularizer": null, "filters": 192, "bias_regularizer": null, "kernel_regularizer": null, "use_bias": false, "bias_constraint": null, "dilation_rate": [1, 1], "name": "conv2d_59", "trainable": true}, "inbound_nodes": [[["activation_58", 0, 0, {}]]]}, {"name": "conv2d_60", "class_name": "Conv2D", "config": {"kernel_constraint": null, "strides": [1, 1], "activation": "linear", "kernel_initializer": {"class_name": "VarianceScaling", "config": {"scale": 1.0, "mode": "fan_avg", "distribution": "uniform", "seed": null}}, "bias_initializer": {"class_name": "Zeros", "config": {}}, "padding": "same", "data_format": "channels_last", "kernel_size": [1, 1], "activity_regularizer": null, "filters": 192, "bias_regularizer": null, "kernel_regularizer": null, "use_bias": false, "bias_constraint": null, "dilation_rate": [1, 1], "name": "conv2d_60", "trainable": true}, "inbound_nodes": [[["average_pooling2d_6", 0, 0, {}]]]}, {"name": "batch_normalization_51", "class_name": "BatchNormalization", "config": {"beta_constraint": null, "trainable": true, "name": "batch_normalization_51", "gamma_regularizer": null, "beta_regularizer": null, "center": true, "momentum": 0.99, "scale": false, "moving_variance_initializer": {"class_name": "Ones", "config": {}}, "moving_mean_initializer": {"class_name": "Zeros", "config": {}}, "axis": 3, "gamma_initializer": {"class_name": "Ones", "config": {}}, "gamma_constraint": null, "epsilon": 0.001, "beta_initializer": {"class_name": "Zeros", "config": {}}}, "inbound_nodes": [[["conv2d_51", 0, 0, {}]]]}, {"name": "batch_normalization_54", "class_name": "BatchNormalization", "config": {"beta_constraint": null, "trainable": true, "name": "batch_normalization_54", "gamma_regularizer": null, "beta_regularizer": null, "center": true, "momentum": 0.99, "scale": false, "moving_variance_initializer": {"class_name": "Ones", "config": {}}, "moving_mean_initializer": {"class_name": "Zeros", "config": {}}, "axis": 3, "gamma_initializer": {"class_name": "Ones", "config": {}}, "gamma_constraint": null, "epsilon": 0.001, "beta_initializer": {"class_name": "Zeros", "config": {}}}, "inbound_nodes": [[["conv2d_54", 0, 0, {}]]]}, {"name": "batch_normalization_59", "class_name": "BatchNormalization", "config": {"beta_constraint": null, "trainable": true, "name": "batch_normalization_59", "gamma_regularizer": null, "beta_regularizer": null, "center": true, "momentum": 0.99, "scale": false, "moving_variance_initializer": {"class_name": "Ones", "config": {}}, "moving_mean_initializer": {"class_name": "Zeros", "config": {}}, "axis": 3, "gamma_initializer": {"class_name": "Ones", "config": {}}, "gamma_constraint": null, "epsilon": 0.001, "beta_initializer": {"class_name": "Zeros", "config": {}}}, "inbound_nodes": [[["conv2d_59", 0, 0, {}]]]}, {"name": "batch_normalization_60", "class_name": "BatchNormalization", "config": {"beta_constraint": null, "trainable": true, "name": "batch_normalization_60", "gamma_regularizer": null, "beta_regularizer": null, "center": true, "momentum": 0.99, "scale": false, "moving_variance_initializer": {"class_name": "Ones", "config": {}}, "moving_mean_initializer": {"class_name": "Zeros", "config": {}}, "axis": 3, "gamma_initializer": {"class_name": "Ones", "config": {}}, "gamma_constraint": null, "epsilon": 0.001, "beta_initializer": {"class_name": "Zeros", "config": {}}}, "inbound_nodes": [[["conv2d_60", 0, 0, {}]]]}, {"name": "activation_51", "class_name": "Activation", "config": {"name": "activation_51", "activation": "relu", "trainable": true}, "inbound_nodes": [[["batch_normalization_51", 0, 0, {}]]]}, {"name": "activation_54", "class_name": "Activation", "config": {"name": "activation_54", "activation": "relu", "trainable": true}, "inbound_nodes": [[["batch_normalization_54", 0, 0, {}]]]}, {"name": "activation_59", "class_name": "Activation", "config": {"name": "activation_59", "activation": "relu", "trainable": true}, "inbound_nodes": [[["batch_normalization_59", 0, 0, {}]]]}, {"name": "activation_60", "class_name": "Activation", "config": {"name": "activation_60", "activation": "relu", "trainable": true}, "inbound_nodes": [[["batch_normalization_60", 0, 0, {}]]]}, {"name": "mixed6", "class_name": "Concatenate", "config": {"name": "mixed6", "trainable": true, "axis": 3}, "inbound_nodes": [[["activation_51", 0, 0, {}], ["activation_54", 0, 0, {}], ["activation_59", 0, 0, {}], ["activation_60", 0, 0, {}]]]}, {"name": "conv2d_65", "class_name": "Conv2D", "config": {"kernel_constraint": null, "strides": [1, 1], "activation": "linear", "kernel_initializer": {"class_name": "VarianceScaling", "config": {"scale": 1.0, "mode": "fan_avg", "distribution": "uniform", "seed": null}}, "bias_initializer": {"class_name": "Zeros", "config": {}}, "padding": "same", "data_format": "channels_last", "kernel_size": [1, 1], "activity_regularizer": null, "filters": 192, "bias_regularizer": null, "kernel_regularizer": null, "use_bias": false, "bias_constraint": null, "dilation_rate": [1, 1], "name": "conv2d_65", "trainable": true}, "inbound_nodes": [[["mixed6", 0, 0, {}]]]}, {"name": "batch_normalization_65", "class_name": "BatchNormalization", "config": {"beta_constraint": null, "trainable": true, "name": "batch_normalization_65", "gamma_regularizer": null, "beta_regularizer": null, "center": true, "momentum": 0.99, "scale": false, "moving_variance_initializer": {"class_name": "Ones", "config": {}}, "moving_mean_initializer": {"class_name": "Zeros", "config": {}}, "axis": 3, "gamma_initializer": {"class_name": "Ones", "config": {}}, "gamma_constraint": null, "epsilon": 0.001, "beta_initializer": {"class_name": "Zeros", "config": {}}}, "inbound_nodes": [[["conv2d_65", 0, 0, {}]]]}, {"name": "activation_65", "class_name": "Activation", "config": {"name": "activation_65", "activation": "relu", "trainable": true}, "inbound_nodes": [[["batch_normalization_65", 0, 0, {}]]]}, {"name": "conv2d_66", "class_name": "Conv2D", "config": {"kernel_constraint": null, "strides": [1, 1], "activation": "linear", "kernel_initializer": {"class_name": "VarianceScaling", "config": {"scale": 1.0, "mode": "fan_avg", "distribution": "uniform", "seed": null}}, "bias_initializer": {"class_name": "Zeros", "config": {}}, "padding": "same", "data_format": "channels_last", "kernel_size": [7, 1], "activity_regularizer": null, "filters": 192, "bias_regularizer": null, "kernel_regularizer": null, "use_bias": false, "bias_constraint": null, "dilation_rate": [1, 1], "name": "conv2d_66", "trainable": true}, "inbound_nodes": [[["activation_65", 0, 0, {}]]]}, {"name": "batch_normalization_66", "class_name": "BatchNormalization", "config": {"beta_constraint": null, "trainable": true, "name": "batch_normalization_66", "gamma_regularizer": null, "beta_regularizer": null, "center": true, "momentum": 0.99, "scale": false, "moving_variance_initializer": {"class_name": "Ones", "config": {}}, "moving_mean_initializer": {"class_name": "Zeros", "config": {}}, "axis": 3, "gamma_initializer": {"class_name": "Ones", "config": {}}, "gamma_constraint": null, "epsilon": 0.001, "beta_initializer": {"class_name": "Zeros", "config": {}}}, "inbound_nodes": [[["conv2d_66", 0, 0, {}]]]}, {"name": "activation_66", "class_name": "Activation", "config": {"name": "activation_66", "activation": "relu", "trainable": true}, "inbound_nodes": [[["batch_normalization_66", 0, 0, {}]]]}, {"name": "conv2d_62", "class_name": "Conv2D", "config": {"kernel_constraint": null, "strides": [1, 1], "activation": "linear", "kernel_initializer": {"class_name": "VarianceScaling", "config": {"scale": 1.0, "mode": "fan_avg", "distribution": "uniform", "seed": null}}, "bias_initializer": {"class_name": "Zeros", "config": {}}, "padding": "same", "data_format": "channels_last", "kernel_size": [1, 1], "activity_regularizer": null, "filters": 192, "bias_regularizer": null, "kernel_regularizer": null, "use_bias": false, "bias_constraint": null, "dilation_rate": [1, 1], "name": "conv2d_62", "trainable": true}, "inbound_nodes": [[["mixed6", 0, 0, {}]]]}, {"name": "conv2d_67", "class_name": "Conv2D", "config": {"kernel_constraint": null, "strides": [1, 1], "activation": "linear", "kernel_initializer": {"class_name": "VarianceScaling", "config": {"scale": 1.0, "mode": "fan_avg", "distribution": "uniform", "seed": null}}, "bias_initializer": {"class_name": "Zeros", "config": {}}, "padding": "same", "data_format": "channels_last", "kernel_size": [1, 7], "activity_regularizer": null, "filters": 192, "bias_regularizer": null, "kernel_regularizer": null, "use_bias": false, "bias_constraint": null, "dilation_rate": [1, 1], "name": "conv2d_67", "trainable": true}, "inbound_nodes": [[["activation_66", 0, 0, {}]]]}, {"name": "batch_normalization_62", "class_name": "BatchNormalization", "config": {"beta_constraint": null, "trainable": true, "name": "batch_normalization_62", "gamma_regularizer": null, "beta_regularizer": null, "center": true, "momentum": 0.99, "scale": false, "moving_variance_initializer": {"class_name": "Ones", "config": {}}, "moving_mean_initializer": {"class_name": "Zeros", "config": {}}, "axis": 3, "gamma_initializer": {"class_name": "Ones", "config": {}}, "gamma_constraint": null, "epsilon": 0.001, "beta_initializer": {"class_name": "Zeros", "config": {}}}, "inbound_nodes": [[["conv2d_62", 0, 0, {}]]]}, {"name": "batch_normalization_67", "class_name": "BatchNormalization", "config": {"beta_constraint": null, "trainable": true, "name": "batch_normalization_67", "gamma_regularizer": null, "beta_regularizer": null, "center": true, "momentum": 0.99, "scale": false, "moving_variance_initializer": {"class_name": "Ones", "config": {}}, "moving_mean_initializer": {"class_name": "Zeros", "config": {}}, "axis": 3, "gamma_initializer": {"class_name": "Ones", "config": {}}, "gamma_constraint": null, "epsilon": 0.001, "beta_initializer": {"class_name": "Zeros", "config": {}}}, "inbound_nodes": [[["conv2d_67", 0, 0, {}]]]}, {"name": "activation_62", "class_name": "Activation", "config": {"name": "activation_62", "activation": "relu", "trainable": true}, "inbound_nodes": [[["batch_normalization_62", 0, 0, {}]]]}, {"name": "activation_67", "class_name": "Activation", "config": {"name": "activation_67", "activation": "relu", "trainable": true}, "inbound_nodes": [[["batch_normalization_67", 0, 0, {}]]]}, {"name": "conv2d_63", "class_name": "Conv2D", "config": {"kernel_constraint": null, "strides": [1, 1], "activation": "linear", "kernel_initializer": {"class_name": "VarianceScaling", "config": {"scale": 1.0, "mode": "fan_avg", "distribution": "uniform", "seed": null}}, "bias_initializer": {"class_name": "Zeros", "config": {}}, "padding": "same", "data_format": "channels_last", "kernel_size": [1, 7], "activity_regularizer": null, "filters": 192, "bias_regularizer": null, "kernel_regularizer": null, "use_bias": false, "bias_constraint": null, "dilation_rate": [1, 1], "name": "conv2d_63", "trainable": true}, "inbound_nodes": [[["activation_62", 0, 0, {}]]]}, {"name": "conv2d_68", "class_name": "Conv2D", "config": {"kernel_constraint": null, "strides": [1, 1], "activation": "linear", "kernel_initializer": {"class_name": "VarianceScaling", "config": {"scale": 1.0, "mode": "fan_avg", "distribution": "uniform", "seed": null}}, "bias_initializer": {"class_name": "Zeros", "config": {}}, "padding": "same", "data_format": "channels_last", "kernel_size": [7, 1], "activity_regularizer": null, "filters": 192, "bias_regularizer": null, "kernel_regularizer": null, "use_bias": false, "bias_constraint": null, "dilation_rate": [1, 1], "name": "conv2d_68", "trainable": true}, "inbound_nodes": [[["activation_67", 0, 0, {}]]]}, {"name": "batch_normalization_63", "class_name": "BatchNormalization", "config": {"beta_constraint": null, "trainable": true, "name": "batch_normalization_63", "gamma_regularizer": null, "beta_regularizer": null, "center": true, "momentum": 0.99, "scale": false, "moving_variance_initializer": {"class_name": "Ones", "config": {}}, "moving_mean_initializer": {"class_name": "Zeros", "config": {}}, "axis": 3, "gamma_initializer": {"class_name": "Ones", "config": {}}, "gamma_constraint": null, "epsilon": 0.001, "beta_initializer": {"class_name": "Zeros", "config": {}}}, "inbound_nodes": [[["conv2d_63", 0, 0, {}]]]}, {"name": "batch_normalization_68", "class_name": "BatchNormalization", "config": {"beta_constraint": null, "trainable": true, "name": "batch_normalization_68", "gamma_regularizer": null, "beta_regularizer": null, "center": true, "momentum": 0.99, "scale": false, "moving_variance_initializer": {"class_name": "Ones", "config": {}}, "moving_mean_initializer": {"class_name": "Zeros", "config": {}}, "axis": 3, "gamma_initializer": {"class_name": "Ones", "config": {}}, "gamma_constraint": null, "epsilon": 0.001, "beta_initializer": {"class_name": "Zeros", "config": {}}}, "inbound_nodes": [[["conv2d_68", 0, 0, {}]]]}, {"name": "activation_63", "class_name": "Activation", "config": {"name": "activation_63", "activation": "relu", "trainable": true}, "inbound_nodes": [[["batch_normalization_63", 0, 0, {}]]]}, {"name": "activation_68", "class_name": "Activation", "config": {"name": "activation_68", "activation": "relu", "trainable": true}, "inbound_nodes": [[["batch_normalization_68", 0, 0, {}]]]}, {"name": "average_pooling2d_7", "class_name": "AveragePooling2D", "config": {"pool_size": [3, 3], "name": "average_pooling2d_7", "padding": "same", "data_format": "channels_last", "strides": [1, 1], "trainable": true}, "inbound_nodes": [[["mixed6", 0, 0, {}]]]}, {"name": "conv2d_61", "class_name": "Conv2D", "config": {"kernel_constraint": null, "strides": [1, 1], "activation": "linear", "kernel_initializer": {"class_name": "VarianceScaling", "config": {"scale": 1.0, "mode": "fan_avg", "distribution": "uniform", "seed": null}}, "bias_initializer": {"class_name": "Zeros", "config": {}}, "padding": "same", "data_format": "channels_last", "kernel_size": [1, 1], "activity_regularizer": null, "filters": 192, "bias_regularizer": null, "kernel_regularizer": null, "use_bias": false, "bias_constraint": null, "dilation_rate": [1, 1], "name": "conv2d_61", "trainable": true}, "inbound_nodes": [[["mixed6", 0, 0, {}]]]}, {"name": "conv2d_64", "class_name": "Conv2D", "config": {"kernel_constraint": null, "strides": [1, 1], "activation": "linear", "kernel_initializer": {"class_name": "VarianceScaling", "config": {"scale": 1.0, "mode": "fan_avg", "distribution": "uniform", "seed": null}}, "bias_initializer": {"class_name": "Zeros", "config": {}}, "padding": "same", "data_format": "channels_last", "kernel_size": [7, 1], "activity_regularizer": null, "filters": 192, "bias_regularizer": null, "kernel_regularizer": null, "use_bias": false, "bias_constraint": null, "dilation_rate": [1, 1], "name": "conv2d_64", "trainable": true}, "inbound_nodes": [[["activation_63", 0, 0, {}]]]}, {"name": "conv2d_69", "class_name": "Conv2D", "config": {"kernel_constraint": null, "strides": [1, 1], "activation": "linear", "kernel_initializer": {"class_name": "VarianceScaling", "config": {"scale": 1.0, "mode": "fan_avg", "distribution": "uniform", "seed": null}}, "bias_initializer": {"class_name": "Zeros", "config": {}}, "padding": "same", "data_format": "channels_last", "kernel_size": [1, 7], "activity_regularizer": null, "filters": 192, "bias_regularizer": null, "kernel_regularizer": null, "use_bias": false, "bias_constraint": null, "dilation_rate": [1, 1], "name": "conv2d_69", "trainable": true}, "inbound_nodes": [[["activation_68", 0, 0, {}]]]}, {"name": "conv2d_70", "class_name": "Conv2D", "config": {"kernel_constraint": null, "strides": [1, 1], "activation": "linear", "kernel_initializer": {"class_name": "VarianceScaling", "config": {"scale": 1.0, "mode": "fan_avg", "distribution": "uniform", "seed": null}}, "bias_initializer": {"class_name": "Zeros", "config": {}}, "padding": "same", "data_format": "channels_last", "kernel_size": [1, 1], "activity_regularizer": null, "filters": 192, "bias_regularizer": null, "kernel_regularizer": null, "use_bias": false, "bias_constraint": null, "dilation_rate": [1, 1], "name": "conv2d_70", "trainable": true}, "inbound_nodes": [[["average_pooling2d_7", 0, 0, {}]]]}, {"name": "batch_normalization_61", "class_name": "BatchNormalization", "config": {"beta_constraint": null, "trainable": true, "name": "batch_normalization_61", "gamma_regularizer": null, "beta_regularizer": null, "center": true, "momentum": 0.99, "scale": false, "moving_variance_initializer": {"class_name": "Ones", "config": {}}, "moving_mean_initializer": {"class_name": "Zeros", "config": {}}, "axis": 3, "gamma_initializer": {"class_name": "Ones", "config": {}}, "gamma_constraint": null, "epsilon": 0.001, "beta_initializer": {"class_name": "Zeros", "config": {}}}, "inbound_nodes": [[["conv2d_61", 0, 0, {}]]]}, {"name": "batch_normalization_64", "class_name": "BatchNormalization", "config": {"beta_constraint": null, "trainable": true, "name": "batch_normalization_64", "gamma_regularizer": null, "beta_regularizer": null, "center": true, "momentum": 0.99, "scale": false, "moving_variance_initializer": {"class_name": "Ones", "config": {}}, "moving_mean_initializer": {"class_name": "Zeros", "config": {}}, "axis": 3, "gamma_initializer": {"class_name": "Ones", "config": {}}, "gamma_constraint": null, "epsilon": 0.001, "beta_initializer": {"class_name": "Zeros", "config": {}}}, "inbound_nodes": [[["conv2d_64", 0, 0, {}]]]}, {"name": "batch_normalization_69", "class_name": "BatchNormalization", "config": {"beta_constraint": null, "trainable": true, "name": "batch_normalization_69", "gamma_regularizer": null, "beta_regularizer": null, "center": true, "momentum": 0.99, "scale": false, "moving_variance_initializer": {"class_name": "Ones", "config": {}}, "moving_mean_initializer": {"class_name": "Zeros", "config": {}}, "axis": 3, "gamma_initializer": {"class_name": "Ones", "config": {}}, "gamma_constraint": null, "epsilon": 0.001, "beta_initializer": {"class_name": "Zeros", "config": {}}}, "inbound_nodes": [[["conv2d_69", 0, 0, {}]]]}, {"name": "batch_normalization_70", "class_name": "BatchNormalization", "config": {"beta_constraint": null, "trainable": true, "name": "batch_normalization_70", "gamma_regularizer": null, "beta_regularizer": null, "center": true, "momentum": 0.99, "scale": false, "moving_variance_initializer": {"class_name": "Ones", "config": {}}, "moving_mean_initializer": {"class_name": "Zeros", "config": {}}, "axis": 3, "gamma_initializer": {"class_name": "Ones", "config": {}}, "gamma_constraint": null, "epsilon": 0.001, "beta_initializer": {"class_name": "Zeros", "config": {}}}, "inbound_nodes": [[["conv2d_70", 0, 0, {}]]]}, {"name": "activation_61", "class_name": "Activation", "config": {"name": "activation_61", "activation": "relu", "trainable": true}, "inbound_nodes": [[["batch_normalization_61", 0, 0, {}]]]}, {"name": "activation_64", "class_name": "Activation", "config": {"name": "activation_64", "activation": "relu", "trainable": true}, "inbound_nodes": [[["batch_normalization_64", 0, 0, {}]]]}, {"name": "activation_69", "class_name": "Activation", "config": {"name": "activation_69", "activation": "relu", "trainable": true}, "inbound_nodes": [[["batch_normalization_69", 0, 0, {}]]]}, {"name": "activation_70", "class_name": "Activation", "config": {"name": "activation_70", "activation": "relu", "trainable": true}, "inbound_nodes": [[["batch_normalization_70", 0, 0, {}]]]}, {"name": "mixed7", "class_name": "Concatenate", "config": {"name": "mixed7", "trainable": true, "axis": 3}, "inbound_nodes": [[["activation_61", 0, 0, {}], ["activation_64", 0, 0, {}], ["activation_69", 0, 0, {}], ["activation_70", 0, 0, {}]]]}, {"name": "conv2d_73", "class_name": "Conv2D", "config": {"kernel_constraint": null, "strides": [1, 1], "activation": "linear", "kernel_initializer": {"class_name": "VarianceScaling", "config": {"scale": 1.0, "mode": "fan_avg", "distribution": "uniform", "seed": null}}, "bias_initializer": {"class_name": "Zeros", "config": {}}, "padding": "same", "data_format": "channels_last", "kernel_size": [1, 1], "activity_regularizer": null, "filters": 192, "bias_regularizer": null, "kernel_regularizer": null, "use_bias": false, "bias_constraint": null, "dilation_rate": [1, 1], "name": "conv2d_73", "trainable": true}, "inbound_nodes": [[["mixed7", 0, 0, {}]]]}, {"name": "batch_normalization_73", "class_name": "BatchNormalization", "config": {"beta_constraint": null, "trainable": true, "name": "batch_normalization_73", "gamma_regularizer": null, "beta_regularizer": null, "center": true, "momentum": 0.99, "scale": false, "moving_variance_initializer": {"class_name": "Ones", "config": {}}, "moving_mean_initializer": {"class_name": "Zeros", "config": {}}, "axis": 3, "gamma_initializer": {"class_name": "Ones", "config": {}}, "gamma_constraint": null, "epsilon": 0.001, "beta_initializer": {"class_name": "Zeros", "config": {}}}, "inbound_nodes": [[["conv2d_73", 0, 0, {}]]]}, {"name": "activation_73", "class_name": "Activation", "config": {"name": "activation_73", "activation": "relu", "trainable": true}, "inbound_nodes": [[["batch_normalization_73", 0, 0, {}]]]}, {"name": "conv2d_74", "class_name": "Conv2D", "config": {"kernel_constraint": null, "strides": [1, 1], "activation": "linear", "kernel_initializer": {"class_name": "VarianceScaling", "config": {"scale": 1.0, "mode": "fan_avg", "distribution": "uniform", "seed": null}}, "bias_initializer": {"class_name": "Zeros", "config": {}}, "padding": "same", "data_format": "channels_last", "kernel_size": [1, 7], "activity_regularizer": null, "filters": 192, "bias_regularizer": null, "kernel_regularizer": null, "use_bias": false, "bias_constraint": null, "dilation_rate": [1, 1], "name": "conv2d_74", "trainable": true}, "inbound_nodes": [[["activation_73", 0, 0, {}]]]}, {"name": "batch_normalization_74", "class_name": "BatchNormalization", "config": {"beta_constraint": null, "trainable": true, "name": "batch_normalization_74", "gamma_regularizer": null, "beta_regularizer": null, "center": true, "momentum": 0.99, "scale": false, "moving_variance_initializer": {"class_name": "Ones", "config": {}}, "moving_mean_initializer": {"class_name": "Zeros", "config": {}}, "axis": 3, "gamma_initializer": {"class_name": "Ones", "config": {}}, "gamma_constraint": null, "epsilon": 0.001, "beta_initializer": {"class_name": "Zeros", "config": {}}}, "inbound_nodes": [[["conv2d_74", 0, 0, {}]]]}, {"name": "activation_74", "class_name": "Activation", "config": {"name": "activation_74", "activation": "relu", "trainable": true}, "inbound_nodes": [[["batch_normalization_74", 0, 0, {}]]]}, {"name": "conv2d_71", "class_name": "Conv2D", "config": {"kernel_constraint": null, "strides": [1, 1], "activation": "linear", "kernel_initializer": {"class_name": "VarianceScaling", "config": {"scale": 1.0, "mode": "fan_avg", "distribution": "uniform", "seed": null}}, "bias_initializer": {"class_name": "Zeros", "config": {}}, "padding": "same", "data_format": "channels_last", "kernel_size": [1, 1], "activity_regularizer": null, "filters": 192, "bias_regularizer": null, "kernel_regularizer": null, "use_bias": false, "bias_constraint": null, "dilation_rate": [1, 1], "name": "conv2d_71", "trainable": true}, "inbound_nodes": [[["mixed7", 0, 0, {}]]]}, {"name": "conv2d_75", "class_name": "Conv2D", "config": {"kernel_constraint": null, "strides": [1, 1], "activation": "linear", "kernel_initializer": {"class_name": "VarianceScaling", "config": {"scale": 1.0, "mode": "fan_avg", "distribution": "uniform", "seed": null}}, "bias_initializer": {"class_name": "Zeros", "config": {}}, "padding": "same", "data_format": "channels_last", "kernel_size": [7, 1], "activity_regularizer": null, "filters": 192, "bias_regularizer": null, "kernel_regularizer": null, "use_bias": false, "bias_constraint": null, "dilation_rate": [1, 1], "name": "conv2d_75", "trainable": true}, "inbound_nodes": [[["activation_74", 0, 0, {}]]]}, {"name": "batch_normalization_71", "class_name": "BatchNormalization", "config": {"beta_constraint": null, "trainable": true, "name": "batch_normalization_71", "gamma_regularizer": null, "beta_regularizer": null, "center": true, "momentum": 0.99, "scale": false, "moving_variance_initializer": {"class_name": "Ones", "config": {}}, "moving_mean_initializer": {"class_name": "Zeros", "config": {}}, "axis": 3, "gamma_initializer": {"class_name": "Ones", "config": {}}, "gamma_constraint": null, "epsilon": 0.001, "beta_initializer": {"class_name": "Zeros", "config": {}}}, "inbound_nodes": [[["conv2d_71", 0, 0, {}]]]}, {"name": "batch_normalization_75", "class_name": "BatchNormalization", "config": {"beta_constraint": null, "trainable": true, "name": "batch_normalization_75", "gamma_regularizer": null, "beta_regularizer": null, "center": true, "momentum": 0.99, "scale": false, "moving_variance_initializer": {"class_name": "Ones", "config": {}}, "moving_mean_initializer": {"class_name": "Zeros", "config": {}}, "axis": 3, "gamma_initializer": {"class_name": "Ones", "config": {}}, "gamma_constraint": null, "epsilon": 0.001, "beta_initializer": {"class_name": "Zeros", "config": {}}}, "inbound_nodes": [[["conv2d_75", 0, 0, {}]]]}, {"name": "activation_71", "class_name": "Activation", "config": {"name": "activation_71", "activation": "relu", "trainable": true}, "inbound_nodes": [[["batch_normalization_71", 0, 0, {}]]]}, {"name": "activation_75", "class_name": "Activation", "config": {"name": "activation_75", "activation": "relu", "trainable": true}, "inbound_nodes": [[["batch_normalization_75", 0, 0, {}]]]}, {"name": "conv2d_72", "class_name": "Conv2D", "config": {"kernel_constraint": null, "strides": [2, 2], "activation": "linear", "kernel_initializer": {"class_name": "VarianceScaling", "config": {"scale": 1.0, "mode": "fan_avg", "distribution": "uniform", "seed": null}}, "bias_initializer": {"class_name": "Zeros", "config": {}}, "padding": "valid", "data_format": "channels_last", "kernel_size": [3, 3], "activity_regularizer": null, "filters": 320, "bias_regularizer": null, "kernel_regularizer": null, "use_bias": false, "bias_constraint": null, "dilation_rate": [1, 1], "name": "conv2d_72", "trainable": true}, "inbound_nodes": [[["activation_71", 0, 0, {}]]]}, {"name": "conv2d_76", "class_name": "Conv2D", "config": {"kernel_constraint": null, "strides": [2, 2], "activation": "linear", "kernel_initializer": {"class_name": "VarianceScaling", "config": {"scale": 1.0, "mode": "fan_avg", "distribution": "uniform", "seed": null}}, "bias_initializer": {"class_name": "Zeros", "config": {}}, "padding": "valid", "data_format": "channels_last", "kernel_size": [3, 3], "activity_regularizer": null, "filters": 192, "bias_regularizer": null, "kernel_regularizer": null, "use_bias": false, "bias_constraint": null, "dilation_rate": [1, 1], "name": "conv2d_76", "trainable": true}, "inbound_nodes": [[["activation_75", 0, 0, {}]]]}, {"name": "batch_normalization_72", "class_name": "BatchNormalization", "config": {"beta_constraint": null, "trainable": true, "name": "batch_normalization_72", "gamma_regularizer": null, "beta_regularizer": null, "center": true, "momentum": 0.99, "scale": false, "moving_variance_initializer": {"class_name": "Ones", "config": {}}, "moving_mean_initializer": {"class_name": "Zeros", "config": {}}, "axis": 3, "gamma_initializer": {"class_name": "Ones", "config": {}}, "gamma_constraint": null, "epsilon": 0.001, "beta_initializer": {"class_name": "Zeros", "config": {}}}, "inbound_nodes": [[["conv2d_72", 0, 0, {}]]]}, {"name": "batch_normalization_76", "class_name": "BatchNormalization", "config": {"beta_constraint": null, "trainable": true, "name": "batch_normalization_76", "gamma_regularizer": null, "beta_regularizer": null, "center": true, "momentum": 0.99, "scale": false, "moving_variance_initializer": {"class_name": "Ones", "config": {}}, "moving_mean_initializer": {"class_name": "Zeros", "config": {}}, "axis": 3, "gamma_initializer": {"class_name": "Ones", "config": {}}, "gamma_constraint": null, "epsilon": 0.001, "beta_initializer": {"class_name": "Zeros", "config": {}}}, "inbound_nodes": [[["conv2d_76", 0, 0, {}]]]}, {"name": "activation_72", "class_name": "Activation", "config": {"name": "activation_72", "activation": "relu", "trainable": true}, "inbound_nodes": [[["batch_normalization_72", 0, 0, {}]]]}, {"name": "activation_76", "class_name": "Activation", "config": {"name": "activation_76", "activation": "relu", "trainable": true}, "inbound_nodes": [[["batch_normalization_76", 0, 0, {}]]]}, {"name": "max_pooling2d_4", "class_name": "MaxPooling2D", "config": {"pool_size": [3, 3], "name": "max_pooling2d_4", "padding": "valid", "data_format": "channels_last", "strides": [2, 2], "trainable": true}, "inbound_nodes": [[["mixed7", 0, 0, {}]]]}, {"name": "mixed8", "class_name": "Concatenate", "config": {"name": "mixed8", "trainable": true, "axis": 3}, "inbound_nodes": [[["activation_72", 0, 0, {}], ["activation_76", 0, 0, {}], ["max_pooling2d_4", 0, 0, {}]]]}, {"name": "conv2d_81", "class_name": "Conv2D", "config": {"kernel_constraint": null, "strides": [1, 1], "activation": "linear", "kernel_initializer": {"class_name": "VarianceScaling", "config": {"scale": 1.0, "mode": "fan_avg", "distribution": "uniform", "seed": null}}, "bias_initializer": {"class_name": "Zeros", "config": {}}, "padding": "same", "data_format": "channels_last", "kernel_size": [1, 1], "activity_regularizer": null, "filters": 448, "bias_regularizer": null, "kernel_regularizer": null, "use_bias": false, "bias_constraint": null, "dilation_rate": [1, 1], "name": "conv2d_81", "trainable": true}, "inbound_nodes": [[["mixed8", 0, 0, {}]]]}, {"name": "batch_normalization_81", "class_name": "BatchNormalization", "config": {"beta_constraint": null, "trainable": true, "name": "batch_normalization_81", "gamma_regularizer": null, "beta_regularizer": null, "center": true, "momentum": 0.99, "scale": false, "moving_variance_initializer": {"class_name": "Ones", "config": {}}, "moving_mean_initializer": {"class_name": "Zeros", "config": {}}, "axis": 3, "gamma_initializer": {"class_name": "Ones", "config": {}}, "gamma_constraint": null, "epsilon": 0.001, "beta_initializer": {"class_name": "Zeros", "config": {}}}, "inbound_nodes": [[["conv2d_81", 0, 0, {}]]]}, {"name": "activation_81", "class_name": "Activation", "config": {"name": "activation_81", "activation": "relu", "trainable": true}, "inbound_nodes": [[["batch_normalization_81", 0, 0, {}]]]}, {"name": "conv2d_78", "class_name": "Conv2D", "config": {"kernel_constraint": null, "strides": [1, 1], "activation": "linear", "kernel_initializer": {"class_name": "VarianceScaling", "config": {"scale": 1.0, "mode": "fan_avg", "distribution": "uniform", "seed": null}}, "bias_initializer": {"class_name": "Zeros", "config": {}}, "padding": "same", "data_format": "channels_last", "kernel_size": [1, 1], "activity_regularizer": null, "filters": 384, "bias_regularizer": null, "kernel_regularizer": null, "use_bias": false, "bias_constraint": null, "dilation_rate": [1, 1], "name": "conv2d_78", "trainable": true}, "inbound_nodes": [[["mixed8", 0, 0, {}]]]}, {"name": "conv2d_82", "class_name": "Conv2D", "config": {"kernel_constraint": null, "strides": [1, 1], "activation": "linear", "kernel_initializer": {"class_name": "VarianceScaling", "config": {"scale": 1.0, "mode": "fan_avg", "distribution": "uniform", "seed": null}}, "bias_initializer": {"class_name": "Zeros", "config": {}}, "padding": "same", "data_format": "channels_last", "kernel_size": [3, 3], "activity_regularizer": null, "filters": 384, "bias_regularizer": null, "kernel_regularizer": null, "use_bias": false, "bias_constraint": null, "dilation_rate": [1, 1], "name": "conv2d_82", "trainable": true}, "inbound_nodes": [[["activation_81", 0, 0, {}]]]}, {"name": "batch_normalization_78", "class_name": "BatchNormalization", "config": {"beta_constraint": null, "trainable": true, "name": "batch_normalization_78", "gamma_regularizer": null, "beta_regularizer": null, "center": true, "momentum": 0.99, "scale": false, "moving_variance_initializer": {"class_name": "Ones", "config": {}}, "moving_mean_initializer": {"class_name": "Zeros", "config": {}}, "axis": 3, "gamma_initializer": {"class_name": "Ones", "config": {}}, "gamma_constraint": null, "epsilon": 0.001, "beta_initializer": {"class_name": "Zeros", "config": {}}}, "inbound_nodes": [[["conv2d_78", 0, 0, {}]]]}, {"name": "batch_normalization_82", "class_name": "BatchNormalization", "config": {"beta_constraint": null, "trainable": true, "name": "batch_normalization_82", "gamma_regularizer": null, "beta_regularizer": null, "center": true, "momentum": 0.99, "scale": false, "moving_variance_initializer": {"class_name": "Ones", "config": {}}, "moving_mean_initializer": {"class_name": "Zeros", "config": {}}, "axis": 3, "gamma_initializer": {"class_name": "Ones", "config": {}}, "gamma_constraint": null, "epsilon": 0.001, "beta_initializer": {"class_name": "Zeros", "config": {}}}, "inbound_nodes": [[["conv2d_82", 0, 0, {}]]]}, {"name": "activation_78", "class_name": "Activation", "config": {"name": "activation_78", "activation": "relu", "trainable": true}, "inbound_nodes": [[["batch_normalization_78", 0, 0, {}]]]}, {"name": "activation_82", "class_name": "Activation", "config": {"name": "activation_82", "activation": "relu", "trainable": true}, "inbound_nodes": [[["batch_normalization_82", 0, 0, {}]]]}, {"name": "conv2d_79", "class_name": "Conv2D", "config": {"kernel_constraint": null, "strides": [1, 1], "activation": "linear", "kernel_initializer": {"class_name": "VarianceScaling", "config": {"scale": 1.0, "mode": "fan_avg", "distribution": "uniform", "seed": null}}, "bias_initializer": {"class_name": "Zeros", "config": {}}, "padding": "same", "data_format": "channels_last", "kernel_size": [1, 3], "activity_regularizer": null, "filters": 384, "bias_regularizer": null, "kernel_regularizer": null, "use_bias": false, "bias_constraint": null, "dilation_rate": [1, 1], "name": "conv2d_79", "trainable": true}, "inbound_nodes": [[["activation_78", 0, 0, {}]]]}, {"name": "conv2d_80", "class_name": "Conv2D", "config": {"kernel_constraint": null, "strides": [1, 1], "activation": "linear", "kernel_initializer": {"class_name": "VarianceScaling", "config": {"scale": 1.0, "mode": "fan_avg", "distribution": "uniform", "seed": null}}, "bias_initializer": {"class_name": "Zeros", "config": {}}, "padding": "same", "data_format": "channels_last", "kernel_size": [3, 1], "activity_regularizer": null, "filters": 384, "bias_regularizer": null, "kernel_regularizer": null, "use_bias": false, "bias_constraint": null, "dilation_rate": [1, 1], "name": "conv2d_80", "trainable": true}, "inbound_nodes": [[["activation_78", 0, 0, {}]]]}, {"name": "conv2d_83", "class_name": "Conv2D", "config": {"kernel_constraint": null, "strides": [1, 1], "activation": "linear", "kernel_initializer": {"class_name": "VarianceScaling", "config": {"scale": 1.0, "mode": "fan_avg", "distribution": "uniform", "seed": null}}, "bias_initializer": {"class_name": "Zeros", "config": {}}, "padding": "same", "data_format": "channels_last", "kernel_size": [1, 3], "activity_regularizer": null, "filters": 384, "bias_regularizer": null, "kernel_regularizer": null, "use_bias": false, "bias_constraint": null, "dilation_rate": [1, 1], "name": "conv2d_83", "trainable": true}, "inbound_nodes": [[["activation_82", 0, 0, {}]]]}, {"name": "conv2d_84", "class_name": "Conv2D", "config": {"kernel_constraint": null, "strides": [1, 1], "activation": "linear", "kernel_initializer": {"class_name": "VarianceScaling", "config": {"scale": 1.0, "mode": "fan_avg", "distribution": "uniform", "seed": null}}, "bias_initializer": {"class_name": "Zeros", "config": {}}, "padding": "same", "data_format": "channels_last", "kernel_size": [3, 1], "activity_regularizer": null, "filters": 384, "bias_regularizer": null, "kernel_regularizer": null, "use_bias": false, "bias_constraint": null, "dilation_rate": [1, 1], "name": "conv2d_84", "trainable": true}, "inbound_nodes": [[["activation_82", 0, 0, {}]]]}, {"name": "average_pooling2d_8", "class_name": "AveragePooling2D", "config": {"pool_size": [3, 3], "name": "average_pooling2d_8", "padding": "same", "data_format": "channels_last", "strides": [1, 1], "trainable": true}, "inbound_nodes": [[["mixed8", 0, 0, {}]]]}, {"name": "conv2d_77", "class_name": "Conv2D", "config": {"kernel_constraint": null, "strides": [1, 1], "activation": "linear", "kernel_initializer": {"class_name": "VarianceScaling", "config": {"scale": 1.0, "mode": "fan_avg", "distribution": "uniform", "seed": null}}, "bias_initializer": {"class_name": "Zeros", "config": {}}, "padding": "same", "data_format": "channels_last", "kernel_size": [1, 1], "activity_regularizer": null, "filters": 320, "bias_regularizer": null, "kernel_regularizer": null, "use_bias": false, "bias_constraint": null, "dilation_rate": [1, 1], "name": "conv2d_77", "trainable": true}, "inbound_nodes": [[["mixed8", 0, 0, {}]]]}, {"name": "batch_normalization_79", "class_name": "BatchNormalization", "config": {"beta_constraint": null, "trainable": true, "name": "batch_normalization_79", "gamma_regularizer": null, "beta_regularizer": null, "center": true, "momentum": 0.99, "scale": false, "moving_variance_initializer": {"class_name": "Ones", "config": {}}, "moving_mean_initializer": {"class_name": "Zeros", "config": {}}, "axis": 3, "gamma_initializer": {"class_name": "Ones", "config": {}}, "gamma_constraint": null, "epsilon": 0.001, "beta_initializer": {"class_name": "Zeros", "config": {}}}, "inbound_nodes": [[["conv2d_79", 0, 0, {}]]]}, {"name": "batch_normalization_80", "class_name": "BatchNormalization", "config": {"beta_constraint": null, "trainable": true, "name": "batch_normalization_80", "gamma_regularizer": null, "beta_regularizer": null, "center": true, "momentum": 0.99, "scale": false, "moving_variance_initializer": {"class_name": "Ones", "config": {}}, "moving_mean_initializer": {"class_name": "Zeros", "config": {}}, "axis": 3, "gamma_initializer": {"class_name": "Ones", "config": {}}, "gamma_constraint": null, "epsilon": 0.001, "beta_initializer": {"class_name": "Zeros", "config": {}}}, "inbound_nodes": [[["conv2d_80", 0, 0, {}]]]}, {"name": "batch_normalization_83", "class_name": "BatchNormalization", "config": {"beta_constraint": null, "trainable": true, "name": "batch_normalization_83", "gamma_regularizer": null, "beta_regularizer": null, "center": true, "momentum": 0.99, "scale": false, "moving_variance_initializer": {"class_name": "Ones", "config": {}}, "moving_mean_initializer": {"class_name": "Zeros", "config": {}}, "axis": 3, "gamma_initializer": {"class_name": "Ones", "config": {}}, "gamma_constraint": null, "epsilon": 0.001, "beta_initializer": {"class_name": "Zeros", "config": {}}}, "inbound_nodes": [[["conv2d_83", 0, 0, {}]]]}, {"name": "batch_normalization_84", "class_name": "BatchNormalization", "config": {"beta_constraint": null, "trainable": true, "name": "batch_normalization_84", "gamma_regularizer": null, "beta_regularizer": null, "center": true, "momentum": 0.99, "scale": false, "moving_variance_initializer": {"class_name": "Ones", "config": {}}, "moving_mean_initializer": {"class_name": "Zeros", "config": {}}, "axis": 3, "gamma_initializer": {"class_name": "Ones", "config": {}}, "gamma_constraint": null, "epsilon": 0.001, "beta_initializer": {"class_name": "Zeros", "config": {}}}, "inbound_nodes": [[["conv2d_84", 0, 0, {}]]]}, {"name": "conv2d_85", "class_name": "Conv2D", "config": {"kernel_constraint": null, "strides": [1, 1], "activation": "linear", "kernel_initializer": {"class_name": "VarianceScaling", "config": {"scale": 1.0, "mode": "fan_avg", "distribution": "uniform", "seed": null}}, "bias_initializer": {"class_name": "Zeros", "config": {}}, "padding": "same", "data_format": "channels_last", "kernel_size": [1, 1], "activity_regularizer": null, "filters": 192, "bias_regularizer": null, "kernel_regularizer": null, "use_bias": false, "bias_constraint": null, "dilation_rate": [1, 1], "name": "conv2d_85", "trainable": true}, "inbound_nodes": [[["average_pooling2d_8", 0, 0, {}]]]}, {"name": "batch_normalization_77", "class_name": "BatchNormalization", "config": {"beta_constraint": null, "trainable": true, "name": "batch_normalization_77", "gamma_regularizer": null, "beta_regularizer": null, "center": true, "momentum": 0.99, "scale": false, "moving_variance_initializer": {"class_name": "Ones", "config": {}}, "moving_mean_initializer": {"class_name": "Zeros", "config": {}}, "axis": 3, "gamma_initializer": {"class_name": "Ones", "config": {}}, "gamma_constraint": null, "epsilon": 0.001, "beta_initializer": {"class_name": "Zeros", "config": {}}}, "inbound_nodes": [[["conv2d_77", 0, 0, {}]]]}, {"name": "activation_79", "class_name": "Activation", "config": {"name": "activation_79", "activation": "relu", "trainable": true}, "inbound_nodes": [[["batch_normalization_79", 0, 0, {}]]]}, {"name": "activation_80", "class_name": "Activation", "config": {"name": "activation_80", "activation": "relu", "trainable": true}, "inbound_nodes": [[["batch_normalization_80", 0, 0, {}]]]}, {"name": "activation_83", "class_name": "Activation", "config": {"name": "activation_83", "activation": "relu", "trainable": true}, "inbound_nodes": [[["batch_normalization_83", 0, 0, {}]]]}, {"name": "activation_84", "class_name": "Activation", "config": {"name": "activation_84", "activation": "relu", "trainable": true}, "inbound_nodes": [[["batch_normalization_84", 0, 0, {}]]]}, {"name": "batch_normalization_85", "class_name": "BatchNormalization", "config": {"beta_constraint": null, "trainable": true, "name": "batch_normalization_85", "gamma_regularizer": null, "beta_regularizer": null, "center": true, "momentum": 0.99, "scale": false, "moving_variance_initializer": {"class_name": "Ones", "config": {}}, "moving_mean_initializer": {"class_name": "Zeros", "config": {}}, "axis": 3, "gamma_initializer": {"class_name": "Ones", "config": {}}, "gamma_constraint": null, "epsilon": 0.001, "beta_initializer": {"class_name": "Zeros", "config": {}}}, "inbound_nodes": [[["conv2d_85", 0, 0, {}]]]}, {"name": "activation_77", "class_name": "Activation", "config": {"name": "activation_77", "activation": "relu", "trainable": true}, "inbound_nodes": [[["batch_normalization_77", 0, 0, {}]]]}, {"name": "mixed9_0", "class_name": "Concatenate", "config": {"name": "mixed9_0", "trainable": true, "axis": 3}, "inbound_nodes": [[["activation_79", 0, 0, {}], ["activation_80", 0, 0, {}]]]}, {"name": "concatenate_1", "class_name": "Concatenate", "config": {"name": "concatenate_1", "trainable": true, "axis": 3}, "inbound_nodes": [[["activation_83", 0, 0, {}], ["activation_84", 0, 0, {}]]]}, {"name": "activation_85", "class_name": "Activation", "config": {"name": "activation_85", "activation": "relu", "trainable": true}, "inbound_nodes": [[["batch_normalization_85", 0, 0, {}]]]}, {"name": "mixed9", "class_name": "Concatenate", "config": {"name": "mixed9", "trainable": true, "axis": 3}, "inbound_nodes": [[["activation_77", 0, 0, {}], ["mixed9_0", 0, 0, {}], ["concatenate_1", 0, 0, {}], ["activation_85", 0, 0, {}]]]}, {"name": "conv2d_90", "class_name": "Conv2D", "config": {"kernel_constraint": null, "strides": [1, 1], "activation": "linear", "kernel_initializer": {"class_name": "VarianceScaling", "config": {"scale": 1.0, "mode": "fan_avg", "distribution": "uniform", "seed": null}}, "bias_initializer": {"class_name": "Zeros", "config": {}}, "padding": "same", "data_format": "channels_last", "kernel_size": [1, 1], "activity_regularizer": null, "filters": 448, "bias_regularizer": null, "kernel_regularizer": null, "use_bias": false, "bias_constraint": null, "dilation_rate": [1, 1], "name": "conv2d_90", "trainable": true}, "inbound_nodes": [[["mixed9", 0, 0, {}]]]}, {"name": "batch_normalization_90", "class_name": "BatchNormalization", "config": {"beta_constraint": null, "trainable": true, "name": "batch_normalization_90", "gamma_regularizer": null, "beta_regularizer": null, "center": true, "momentum": 0.99, "scale": false, "moving_variance_initializer": {"class_name": "Ones", "config": {}}, "moving_mean_initializer": {"class_name": "Zeros", "config": {}}, "axis": 3, "gamma_initializer": {"class_name": "Ones", "config": {}}, "gamma_constraint": null, "epsilon": 0.001, "beta_initializer": {"class_name": "Zeros", "config": {}}}, "inbound_nodes": [[["conv2d_90", 0, 0, {}]]]}, {"name": "activation_90", "class_name": "Activation", "config": {"name": "activation_90", "activation": "relu", "trainable": true}, "inbound_nodes": [[["batch_normalization_90", 0, 0, {}]]]}, {"name": "conv2d_87", "class_name": "Conv2D", "config": {"kernel_constraint": null, "strides": [1, 1], "activation": "linear", "kernel_initializer": {"class_name": "VarianceScaling", "config": {"scale": 1.0, "mode": "fan_avg", "distribution": "uniform", "seed": null}}, "bias_initializer": {"class_name": "Zeros", "config": {}}, "padding": "same", "data_format": "channels_last", "kernel_size": [1, 1], "activity_regularizer": null, "filters": 384, "bias_regularizer": null, "kernel_regularizer": null, "use_bias": false, "bias_constraint": null, "dilation_rate": [1, 1], "name": "conv2d_87", "trainable": true}, "inbound_nodes": [[["mixed9", 0, 0, {}]]]}, {"name": "conv2d_91", "class_name": "Conv2D", "config": {"kernel_constraint": null, "strides": [1, 1], "activation": "linear", "kernel_initializer": {"class_name": "VarianceScaling", "config": {"scale": 1.0, "mode": "fan_avg", "distribution": "uniform", "seed": null}}, "bias_initializer": {"class_name": "Zeros", "config": {}}, "padding": "same", "data_format": "channels_last", "kernel_size": [3, 3], "activity_regularizer": null, "filters": 384, "bias_regularizer": null, "kernel_regularizer": null, "use_bias": false, "bias_constraint": null, "dilation_rate": [1, 1], "name": "conv2d_91", "trainable": true}, "inbound_nodes": [[["activation_90", 0, 0, {}]]]}, {"name": "batch_normalization_87", "class_name": "BatchNormalization", "config": {"beta_constraint": null, "trainable": true, "name": "batch_normalization_87", "gamma_regularizer": null, "beta_regularizer": null, "center": true, "momentum": 0.99, "scale": false, "moving_variance_initializer": {"class_name": "Ones", "config": {}}, "moving_mean_initializer": {"class_name": "Zeros", "config": {}}, "axis": 3, "gamma_initializer": {"class_name": "Ones", "config": {}}, "gamma_constraint": null, "epsilon": 0.001, "beta_initializer": {"class_name": "Zeros", "config": {}}}, "inbound_nodes": [[["conv2d_87", 0, 0, {}]]]}, {"name": "batch_normalization_91", "class_name": "BatchNormalization", "config": {"beta_constraint": null, "trainable": true, "name": "batch_normalization_91", "gamma_regularizer": null, "beta_regularizer": null, "center": true, "momentum": 0.99, "scale": false, "moving_variance_initializer": {"class_name": "Ones", "config": {}}, "moving_mean_initializer": {"class_name": "Zeros", "config": {}}, "axis": 3, "gamma_initializer": {"class_name": "Ones", "config": {}}, "gamma_constraint": null, "epsilon": 0.001, "beta_initializer": {"class_name": "Zeros", "config": {}}}, "inbound_nodes": [[["conv2d_91", 0, 0, {}]]]}, {"name": "activation_87", "class_name": "Activation", "config": {"name": "activation_87", "activation": "relu", "trainable": true}, "inbound_nodes": [[["batch_normalization_87", 0, 0, {}]]]}, {"name": "activation_91", "class_name": "Activation", "config": {"name": "activation_91", "activation": "relu", "trainable": true}, "inbound_nodes": [[["batch_normalization_91", 0, 0, {}]]]}, {"name": "conv2d_88", "class_name": "Conv2D", "config": {"kernel_constraint": null, "strides": [1, 1], "activation": "linear", "kernel_initializer": {"class_name": "VarianceScaling", "config": {"scale": 1.0, "mode": "fan_avg", "distribution": "uniform", "seed": null}}, "bias_initializer": {"class_name": "Zeros", "config": {}}, "padding": "same", "data_format": "channels_last", "kernel_size": [1, 3], "activity_regularizer": null, "filters": 384, "bias_regularizer": null, "kernel_regularizer": null, "use_bias": false, "bias_constraint": null, "dilation_rate": [1, 1], "name": "conv2d_88", "trainable": true}, "inbound_nodes": [[["activation_87", 0, 0, {}]]]}, {"name": "conv2d_89", "class_name": "Conv2D", "config": {"kernel_constraint": null, "strides": [1, 1], "activation": "linear", "kernel_initializer": {"class_name": "VarianceScaling", "config": {"scale": 1.0, "mode": "fan_avg", "distribution": "uniform", "seed": null}}, "bias_initializer": {"class_name": "Zeros", "config": {}}, "padding": "same", "data_format": "channels_last", "kernel_size": [3, 1], "activity_regularizer": null, "filters": 384, "bias_regularizer": null, "kernel_regularizer": null, "use_bias": false, "bias_constraint": null, "dilation_rate": [1, 1], "name": "conv2d_89", "trainable": true}, "inbound_nodes": [[["activation_87", 0, 0, {}]]]}, {"name": "conv2d_92", "class_name": "Conv2D", "config": {"kernel_constraint": null, "strides": [1, 1], "activation": "linear", "kernel_initializer": {"class_name": "VarianceScaling", "config": {"scale": 1.0, "mode": "fan_avg", "distribution": "uniform", "seed": null}}, "bias_initializer": {"class_name": "Zeros", "config": {}}, "padding": "same", "data_format": "channels_last", "kernel_size": [1, 3], "activity_regularizer": null, "filters": 384, "bias_regularizer": null, "kernel_regularizer": null, "use_bias": false, "bias_constraint": null, "dilation_rate": [1, 1], "name": "conv2d_92", "trainable": true}, "inbound_nodes": [[["activation_91", 0, 0, {}]]]}, {"name": "conv2d_93", "class_name": "Conv2D", "config": {"kernel_constraint": null, "strides": [1, 1], "activation": "linear", "kernel_initializer": {"class_name": "VarianceScaling", "config": {"scale": 1.0, "mode": "fan_avg", "distribution": "uniform", "seed": null}}, "bias_initializer": {"class_name": "Zeros", "config": {}}, "padding": "same", "data_format": "channels_last", "kernel_size": [3, 1], "activity_regularizer": null, "filters": 384, "bias_regularizer": null, "kernel_regularizer": null, "use_bias": false, "bias_constraint": null, "dilation_rate": [1, 1], "name": "conv2d_93", "trainable": true}, "inbound_nodes": [[["activation_91", 0, 0, {}]]]}, {"name": "average_pooling2d_9", "class_name": "AveragePooling2D", "config": {"pool_size": [3, 3], "name": "average_pooling2d_9", "padding": "same", "data_format": "channels_last", "strides": [1, 1], "trainable": true}, "inbound_nodes": [[["mixed9", 0, 0, {}]]]}, {"name": "conv2d_86", "class_name": "Conv2D", "config": {"kernel_constraint": null, "strides": [1, 1], "activation": "linear", "kernel_initializer": {"class_name": "VarianceScaling", "config": {"scale": 1.0, "mode": "fan_avg", "distribution": "uniform", "seed": null}}, "bias_initializer": {"class_name": "Zeros", "config": {}}, "padding": "same", "data_format": "channels_last", "kernel_size": [1, 1], "activity_regularizer": null, "filters": 320, "bias_regularizer": null, "kernel_regularizer": null, "use_bias": false, "bias_constraint": null, "dilation_rate": [1, 1], "name": "conv2d_86", "trainable": true}, "inbound_nodes": [[["mixed9", 0, 0, {}]]]}, {"name": "batch_normalization_88", "class_name": "BatchNormalization", "config": {"beta_constraint": null, "trainable": true, "name": "batch_normalization_88", "gamma_regularizer": null, "beta_regularizer": null, "center": true, "momentum": 0.99, "scale": false, "moving_variance_initializer": {"class_name": "Ones", "config": {}}, "moving_mean_initializer": {"class_name": "Zeros", "config": {}}, "axis": 3, "gamma_initializer": {"class_name": "Ones", "config": {}}, "gamma_constraint": null, "epsilon": 0.001, "beta_initializer": {"class_name": "Zeros", "config": {}}}, "inbound_nodes": [[["conv2d_88", 0, 0, {}]]]}, {"name": "batch_normalization_89", "class_name": "BatchNormalization", "config": {"beta_constraint": null, "trainable": true, "name": "batch_normalization_89", "gamma_regularizer": null, "beta_regularizer": null, "center": true, "momentum": 0.99, "scale": false, "moving_variance_initializer": {"class_name": "Ones", "config": {}}, "moving_mean_initializer": {"class_name": "Zeros", "config": {}}, "axis": 3, "gamma_initializer": {"class_name": "Ones", "config": {}}, "gamma_constraint": null, "epsilon": 0.001, "beta_initializer": {"class_name": "Zeros", "config": {}}}, "inbound_nodes": [[["conv2d_89", 0, 0, {}]]]}, {"name": "batch_normalization_92", "class_name": "BatchNormalization", "config": {"beta_constraint": null, "trainable": true, "name": "batch_normalization_92", "gamma_regularizer": null, "beta_regularizer": null, "center": true, "momentum": 0.99, "scale": false, "moving_variance_initializer": {"class_name": "Ones", "config": {}}, "moving_mean_initializer": {"class_name": "Zeros", "config": {}}, "axis": 3, "gamma_initializer": {"class_name": "Ones", "config": {}}, "gamma_constraint": null, "epsilon": 0.001, "beta_initializer": {"class_name": "Zeros", "config": {}}}, "inbound_nodes": [[["conv2d_92", 0, 0, {}]]]}, {"name": "batch_normalization_93", "class_name": "BatchNormalization", "config": {"beta_constraint": null, "trainable": true, "name": "batch_normalization_93", "gamma_regularizer": null, "beta_regularizer": null, "center": true, "momentum": 0.99, "scale": false, "moving_variance_initializer": {"class_name": "Ones", "config": {}}, "moving_mean_initializer": {"class_name": "Zeros", "config": {}}, "axis": 3, "gamma_initializer": {"class_name": "Ones", "config": {}}, "gamma_constraint": null, "epsilon": 0.001, "beta_initializer": {"class_name": "Zeros", "config": {}}}, "inbound_nodes": [[["conv2d_93", 0, 0, {}]]]}, {"name": "conv2d_94", "class_name": "Conv2D", "config": {"kernel_constraint": null, "strides": [1, 1], "activation": "linear", "kernel_initializer": {"class_name": "VarianceScaling", "config": {"scale": 1.0, "mode": "fan_avg", "distribution": "uniform", "seed": null}}, "bias_initializer": {"class_name": "Zeros", "config": {}}, "padding": "same", "data_format": "channels_last", "kernel_size": [1, 1], "activity_regularizer": null, "filters": 192, "bias_regularizer": null, "kernel_regularizer": null, "use_bias": false, "bias_constraint": null, "dilation_rate": [1, 1], "name": "conv2d_94", "trainable": true}, "inbound_nodes": [[["average_pooling2d_9", 0, 0, {}]]]}, {"name": "batch_normalization_86", "class_name": "BatchNormalization", "config": {"beta_constraint": null, "trainable": true, "name": "batch_normalization_86", "gamma_regularizer": null, "beta_regularizer": null, "center": true, "momentum": 0.99, "scale": false, "moving_variance_initializer": {"class_name": "Ones", "config": {}}, "moving_mean_initializer": {"class_name": "Zeros", "config": {}}, "axis": 3, "gamma_initializer": {"class_name": "Ones", "config": {}}, "gamma_constraint": null, "epsilon": 0.001, "beta_initializer": {"class_name": "Zeros", "config": {}}}, "inbound_nodes": [[["conv2d_86", 0, 0, {}]]]}, {"name": "activation_88", "class_name": "Activation", "config": {"name": "activation_88", "activation": "relu", "trainable": true}, "inbound_nodes": [[["batch_normalization_88", 0, 0, {}]]]}, {"name": "activation_89", "class_name": "Activation", "config": {"name": "activation_89", "activation": "relu", "trainable": true}, "inbound_nodes": [[["batch_normalization_89", 0, 0, {}]]]}, {"name": "activation_92", "class_name": "Activation", "config": {"name": "activation_92", "activation": "relu", "trainable": true}, "inbound_nodes": [[["batch_normalization_92", 0, 0, {}]]]}, {"name": "activation_93", "class_name": "Activation", "config": {"name": "activation_93", "activation": "relu", "trainable": true}, "inbound_nodes": [[["batch_normalization_93", 0, 0, {}]]]}, {"name": "batch_normalization_94", "class_name": "BatchNormalization", "config": {"beta_constraint": null, "trainable": true, "name": "batch_normalization_94", "gamma_regularizer": null, "beta_regularizer": null, "center": true, "momentum": 0.99, "scale": false, "moving_variance_initializer": {"class_name": "Ones", "config": {}}, "moving_mean_initializer": {"class_name": "Zeros", "config": {}}, "axis": 3, "gamma_initializer": {"class_name": "Ones", "config": {}}, "gamma_constraint": null, "epsilon": 0.001, "beta_initializer": {"class_name": "Zeros", "config": {}}}, "inbound_nodes": [[["conv2d_94", 0, 0, {}]]]}, {"name": "activation_86", "class_name": "Activation", "config": {"name": "activation_86", "activation": "relu", "trainable": true}, "inbound_nodes": [[["batch_normalization_86", 0, 0, {}]]]}, {"name": "mixed9_1", "class_name": "Concatenate", "config": {"name": "mixed9_1", "trainable": true, "axis": 3}, "inbound_nodes": [[["activation_88", 0, 0, {}], ["activation_89", 0, 0, {}]]]}, {"name": "concatenate_2", "class_name": "Concatenate", "config": {"name": "concatenate_2", "trainable": true, "axis": 3}, "inbound_nodes": [[["activation_92", 0, 0, {}], ["activation_93", 0, 0, {}]]]}, {"name": "activation_94", "class_name": "Activation", "config": {"name": "activation_94", "activation": "relu", "trainable": true}, "inbound_nodes": [[["batch_normalization_94", 0, 0, {}]]]}, {"name": "mixed10", "class_name": "Concatenate", "config": {"name": "mixed10", "trainable": true, "axis": 3}, "inbound_nodes": [[["activation_86", 0, 0, {}], ["mixed9_1", 0, 0, {}], ["concatenate_2", 0, 0, {}], ["activation_94", 0, 0, {}]]]}, {"name": "global_average_pooling2d_1", "class_name": "GlobalAveragePooling2D", "config": {"name": "global_average_pooling2d_1", "data_format": "channels_last", "trainable": true}, "inbound_nodes": [[["mixed10", 0, 0, {}]]]}, {"name": "dense_1", "class_name": "Dense", "config": {"kernel_constraint": null, "activation": "relu", "kernel_initializer": {"class_name": "VarianceScaling", "config": {"scale": 1.0, "mode": "fan_avg", "distribution": "uniform", "seed": null}}, "name": "dense_1", "bias_initializer": {"class_name": "Zeros", "config": {}}, "bias_constraint": null, "activity_regularizer": null, "bias_regularizer": null, "kernel_regularizer": null, "use_bias": true, "units": 1024, "trainable": true}, "inbound_nodes": [[["global_average_pooling2d_1", 0, 0, {}]]]}, {"name": "dense_2", "class_name": "Dense", "config": {"kernel_constraint": null, "activation": "softmax", "kernel_initializer": {"class_name": "VarianceScaling", "config": {"scale": 1.0, "mode": "fan_avg", "distribution": "uniform", "seed": null}}, "name": "dense_2", "bias_initializer": {"class_name": "Zeros", "config": {}}, "bias_constraint": null, "activity_regularizer": null, "bias_regularizer": null, "kernel_regularizer": null, "use_bias": true, "units": 2, "trainable": true}, "inbound_nodes": [[["dense_1", 0, 0, {}]]]}], "output_layers": [["dense_2", 0, 0]]}, "backend": "tensorflow"}